{
  "format": "graph-model",
  "generatedBy": "1.12.0",
  "convertedBy": "TensorFlow.js Converter v4.19.0",
  "signature": {
    "inputs": {
      "segment_ids:0": {
        "name": "segment_ids:0",
        "dtype": "DT_INT32",
        "tensorShape": {
          "dim": [
            {
              "size": "-1"
            },
            {
              "size": "-1"
            }
          ]
        }
      },
      "mlm_positions:0": {
        "name": "mlm_positions:0",
        "dtype": "DT_INT32",
        "tensorShape": {
          "dim": [
            {
              "size": "-1"
            },
            {
              "size": "-1"
            }
          ]
        }
      },
      "input_mask:0": {
        "name": "input_mask:0",
        "dtype": "DT_INT32",
        "tensorShape": {
          "dim": [
            {
              "size": "-1"
            },
            {
              "size": "-1"
            }
          ]
        }
      },
      "input_ids:0": {
        "name": "input_ids:0",
        "dtype": "DT_INT32",
        "tensorShape": {
          "dim": [
            {
              "size": "-1"
            },
            {
              "size": "-1"
            }
          ]
        }
      }
    },
    "outputs": {
      "mlm_logits": {
        "name": "cls/predictions/BiasAdd:0",
        "dtype": "DT_FLOAT",
        "tensorShape": {
          "dim": [
            {
              "size": "-1"
            },
            {
              "size": "28996"
            }
          ]
        }
      },
      "pooled_output": {
        "name": "bert/pooler/dense/Tanh:0",
        "dtype": "DT_FLOAT",
        "tensorShape": {
          "dim": [
            {
              "size": "-1"
            },
            {
              "size": "768"
            }
          ]
        }
      },
      "sequence_output": {
        "name": "bert/encoder/Reshape_13:0",
        "dtype": "DT_FLOAT",
        "tensorShape": {
          "dim": [
            {
              "size": "-1"
            },
            {
              "size": "-1"
            },
            {
              "size": "768"
            }
          ]
        }
      }
    }
  },
  "modelTopology": {
    "node": [
      {
        "name": "bert/pooler/strided_slice/stack",
        "op": "Const",
        "attr": {
          "dtype": {
            "type": "DT_INT32"
          },
          "value": {
            "tensor": {
              "dtype": "DT_INT32",
              "tensorShape": {
                "dim": [
                  {
                    "size": "3"
                  }
                ]
              }
            }
          }
        }
      },
      {
        "name": "bert/pooler/strided_slice/stack_1",
        "op": "Const",
        "attr": {
          "dtype": {
            "type": "DT_INT32"
          },
          "value": {
            "tensor": {
              "dtype": "DT_INT32",
              "tensorShape": {
                "dim": [
                  {
                    "size": "3"
                  }
                ]
              }
            }
          }
        }
      },
      {
        "name": "bert/pooler/strided_slice/stack_2",
        "op": "Const",
        "attr": {
          "dtype": {
            "type": "DT_INT32"
          },
          "value": {
            "tensor": {
              "dtype": "DT_INT32",
              "tensorShape": {
                "dim": [
                  {
                    "size": "3"
                  }
                ]
              }
            }
          }
        }
      },
      {
        "name": "bert/pooler/dense/kernel",
        "op": "Const",
        "attr": {
          "dtype": {
            "type": "DT_FLOAT"
          },
          "value": {
            "tensor": {
              "dtype": "DT_FLOAT",
              "tensorShape": {
                "dim": [
                  {
                    "size": "768"
                  },
                  {
                    "size": "768"
                  }
                ]
              }
            }
          }
        }
      },
      {
        "name": "bert/pooler/dense/bias",
        "op": "Const",
        "attr": {
          "value": {
            "tensor": {
              "dtype": "DT_FLOAT",
              "tensorShape": {
                "dim": [
                  {
                    "size": "768"
                  }
                ]
              }
            }
          },
          "dtype": {
            "type": "DT_FLOAT"
          }
        }
      },
      {
        "name": "cls/predictions/transform/LayerNorm/beta",
        "op": "Const",
        "attr": {
          "value": {
            "tensor": {
              "dtype": "DT_FLOAT",
              "tensorShape": {
                "dim": [
                  {
                    "size": "768"
                  }
                ]
              }
            }
          },
          "dtype": {
            "type": "DT_FLOAT"
          }
        }
      },
      {
        "name": "cls/predictions/transform/dense/mul_2/x",
        "op": "Const",
        "attr": {
          "value": {
            "tensor": {
              "dtype": "DT_FLOAT",
              "tensorShape": {}
            }
          },
          "dtype": {
            "type": "DT_FLOAT"
          }
        }
      },
      {
        "name": "cls/predictions/transform/dense/add_1/x",
        "op": "Const",
        "attr": {
          "value": {
            "tensor": {
              "dtype": "DT_FLOAT",
              "tensorShape": {}
            }
          },
          "dtype": {
            "type": "DT_FLOAT"
          }
        }
      },
      {
        "name": "cls/predictions/transform/dense/mul_1/x",
        "op": "Const",
        "attr": {
          "dtype": {
            "type": "DT_FLOAT"
          },
          "value": {
            "tensor": {
              "dtype": "DT_FLOAT",
              "tensorShape": {}
            }
          }
        }
      },
      {
        "name": "cls/predictions/transform/dense/mul/x",
        "op": "Const",
        "attr": {
          "dtype": {
            "type": "DT_FLOAT"
          },
          "value": {
            "tensor": {
              "dtype": "DT_FLOAT",
              "tensorShape": {}
            }
          }
        }
      },
      {
        "name": "Reshape_2/shape/1",
        "op": "Const",
        "attr": {
          "value": {
            "tensor": {
              "dtype": "DT_INT32",
              "tensorShape": {}
            }
          },
          "dtype": {
            "type": "DT_INT32"
          }
        }
      },
      {
        "name": "range/start",
        "op": "Const",
        "attr": {
          "dtype": {
            "type": "DT_INT32"
          },
          "value": {
            "tensor": {
              "dtype": "DT_INT32",
              "tensorShape": {}
            }
          }
        }
      },
      {
        "name": "strided_slice_2/stack",
        "op": "Const",
        "attr": {
          "dtype": {
            "type": "DT_INT32"
          },
          "value": {
            "tensor": {
              "dtype": "DT_INT32",
              "tensorShape": {
                "dim": [
                  {
                    "size": "1"
                  }
                ]
              }
            }
          }
        }
      },
      {
        "name": "strided_slice_2/stack_1",
        "op": "Const",
        "attr": {
          "dtype": {
            "type": "DT_INT32"
          },
          "value": {
            "tensor": {
              "dtype": "DT_INT32",
              "tensorShape": {
                "dim": [
                  {
                    "size": "1"
                  }
                ]
              }
            }
          }
        }
      },
      {
        "name": "strided_slice_2/stack_2",
        "op": "Const",
        "attr": {
          "value": {
            "tensor": {
              "dtype": "DT_INT32",
              "tensorShape": {
                "dim": [
                  {
                    "size": "1"
                  }
                ]
              }
            }
          },
          "dtype": {
            "type": "DT_INT32"
          }
        }
      },
      {
        "name": "range/delta",
        "op": "Const",
        "attr": {
          "value": {
            "tensor": {
              "dtype": "DT_INT32",
              "tensorShape": {}
            }
          },
          "dtype": {
            "type": "DT_INT32"
          }
        }
      },
      {
        "name": "bert/encoder/layer_11/output/LayerNorm/beta",
        "op": "Const",
        "attr": {
          "dtype": {
            "type": "DT_FLOAT"
          },
          "value": {
            "tensor": {
              "dtype": "DT_FLOAT",
              "tensorShape": {
                "dim": [
                  {
                    "size": "768"
                  }
                ]
              }
            }
          }
        }
      },
      {
        "name": "bert/encoder/layer_11/output/dropout/truediv",
        "op": "Const",
        "attr": {
          "dtype": {
            "type": "DT_FLOAT"
          },
          "value": {
            "tensor": {
              "dtype": "DT_FLOAT",
              "tensorShape": {}
            }
          }
        }
      },
      {
        "name": "bert/encoder/layer_11/intermediate/dense/mul_2/x",
        "op": "Const",
        "attr": {
          "dtype": {
            "type": "DT_FLOAT"
          },
          "value": {
            "tensor": {
              "dtype": "DT_FLOAT",
              "tensorShape": {}
            }
          }
        }
      },
      {
        "name": "bert/encoder/layer_11/intermediate/dense/add_1/x",
        "op": "Const",
        "attr": {
          "value": {
            "tensor": {
              "dtype": "DT_FLOAT",
              "tensorShape": {}
            }
          },
          "dtype": {
            "type": "DT_FLOAT"
          }
        }
      },
      {
        "name": "bert/encoder/layer_11/intermediate/dense/mul_1/x",
        "op": "Const",
        "attr": {
          "value": {
            "tensor": {
              "dtype": "DT_FLOAT",
              "tensorShape": {}
            }
          },
          "dtype": {
            "type": "DT_FLOAT"
          }
        }
      },
      {
        "name": "bert/encoder/layer_11/intermediate/dense/mul/x",
        "op": "Const",
        "attr": {
          "value": {
            "tensor": {
              "dtype": "DT_FLOAT",
              "tensorShape": {}
            }
          },
          "dtype": {
            "type": "DT_FLOAT"
          }
        }
      },
      {
        "name": "bert/encoder/layer_11/intermediate/dense/kernel",
        "op": "Const",
        "attr": {
          "dtype": {
            "type": "DT_FLOAT"
          },
          "value": {
            "tensor": {
              "dtype": "DT_FLOAT",
              "tensorShape": {
                "dim": [
                  {
                    "size": "768"
                  },
                  {
                    "size": "3072"
                  }
                ]
              }
            }
          }
        }
      },
      {
        "name": "bert/encoder/layer_11/intermediate/dense/bias",
        "op": "Const",
        "attr": {
          "dtype": {
            "type": "DT_FLOAT"
          },
          "value": {
            "tensor": {
              "dtype": "DT_FLOAT",
              "tensorShape": {
                "dim": [
                  {
                    "size": "3072"
                  }
                ]
              }
            }
          }
        }
      },
      {
        "name": "bert/encoder/layer_11/intermediate/dense/Pow/y",
        "op": "Const",
        "attr": {
          "value": {
            "tensor": {
              "dtype": "DT_FLOAT",
              "tensorShape": {}
            }
          },
          "dtype": {
            "type": "DT_FLOAT"
          }
        }
      },
      {
        "name": "bert/encoder/layer_11/output/dense/kernel",
        "op": "Const",
        "attr": {
          "value": {
            "tensor": {
              "dtype": "DT_FLOAT",
              "tensorShape": {
                "dim": [
                  {
                    "size": "3072"
                  },
                  {
                    "size": "768"
                  }
                ]
              }
            }
          },
          "dtype": {
            "type": "DT_FLOAT"
          }
        }
      },
      {
        "name": "bert/encoder/layer_11/output/dense/bias",
        "op": "Const",
        "attr": {
          "dtype": {
            "type": "DT_FLOAT"
          },
          "value": {
            "tensor": {
              "dtype": "DT_FLOAT",
              "tensorShape": {
                "dim": [
                  {
                    "size": "768"
                  }
                ]
              }
            }
          }
        }
      },
      {
        "name": "bert/encoder/layer_11/output/dropout/rate",
        "op": "Const",
        "attr": {
          "value": {
            "tensor": {
              "dtype": "DT_FLOAT",
              "tensorShape": {}
            }
          },
          "dtype": {
            "type": "DT_FLOAT"
          }
        }
      },
      {
        "name": "bert/encoder/layer_11/attention/output/LayerNorm/beta",
        "op": "Const",
        "attr": {
          "dtype": {
            "type": "DT_FLOAT"
          },
          "value": {
            "tensor": {
              "dtype": "DT_FLOAT",
              "tensorShape": {
                "dim": [
                  {
                    "size": "768"
                  }
                ]
              }
            }
          }
        }
      },
      {
        "name": "bert/encoder/layer_11/attention/output/dropout/truediv",
        "op": "Const",
        "attr": {
          "value": {
            "tensor": {
              "dtype": "DT_FLOAT",
              "tensorShape": {}
            }
          },
          "dtype": {
            "type": "DT_FLOAT"
          }
        }
      },
      {
        "name": "bert/encoder/layer_11/attention/self/dropout/truediv",
        "op": "Const",
        "attr": {
          "value": {
            "tensor": {
              "dtype": "DT_FLOAT",
              "tensorShape": {}
            }
          },
          "dtype": {
            "type": "DT_FLOAT"
          }
        }
      },
      {
        "name": "bert/encoder/layer_11/attention/self/query/kernel",
        "op": "Const",
        "attr": {
          "value": {
            "tensor": {
              "dtype": "DT_FLOAT",
              "tensorShape": {
                "dim": [
                  {
                    "size": "768"
                  },
                  {
                    "size": "768"
                  }
                ]
              }
            }
          },
          "dtype": {
            "type": "DT_FLOAT"
          }
        }
      },
      {
        "name": "bert/encoder/layer_11/attention/self/query/bias",
        "op": "Const",
        "attr": {
          "value": {
            "tensor": {
              "dtype": "DT_FLOAT",
              "tensorShape": {
                "dim": [
                  {
                    "size": "768"
                  }
                ]
              }
            }
          },
          "dtype": {
            "type": "DT_FLOAT"
          }
        }
      },
      {
        "name": "bert/encoder/layer_11/attention/self/Reshape/shape/2",
        "op": "Const",
        "attr": {
          "value": {
            "tensor": {
              "dtype": "DT_INT32",
              "tensorShape": {}
            }
          },
          "dtype": {
            "type": "DT_INT32"
          }
        }
      },
      {
        "name": "bert/encoder/layer_11/attention/self/Reshape/shape/3",
        "op": "Const",
        "attr": {
          "dtype": {
            "type": "DT_INT32"
          },
          "value": {
            "tensor": {
              "dtype": "DT_INT32",
              "tensorShape": {}
            }
          }
        }
      },
      {
        "name": "bert/encoder/layer_11/attention/self/transpose/perm",
        "op": "Const",
        "attr": {
          "dtype": {
            "type": "DT_INT32"
          },
          "value": {
            "tensor": {
              "dtype": "DT_INT32",
              "tensorShape": {
                "dim": [
                  {
                    "size": "4"
                  }
                ]
              }
            }
          }
        }
      },
      {
        "name": "bert/encoder/layer_11/attention/self/key/kernel",
        "op": "Const",
        "attr": {
          "value": {
            "tensor": {
              "dtype": "DT_FLOAT",
              "tensorShape": {
                "dim": [
                  {
                    "size": "768"
                  },
                  {
                    "size": "768"
                  }
                ]
              }
            }
          },
          "dtype": {
            "type": "DT_FLOAT"
          }
        }
      },
      {
        "name": "bert/encoder/layer_11/attention/self/key/bias",
        "op": "Const",
        "attr": {
          "dtype": {
            "type": "DT_FLOAT"
          },
          "value": {
            "tensor": {
              "dtype": "DT_FLOAT",
              "tensorShape": {
                "dim": [
                  {
                    "size": "768"
                  }
                ]
              }
            }
          }
        }
      },
      {
        "name": "bert/encoder/layer_11/attention/self/Reshape_1/shape/2",
        "op": "Const",
        "attr": {
          "dtype": {
            "type": "DT_INT32"
          },
          "value": {
            "tensor": {
              "dtype": "DT_INT32",
              "tensorShape": {}
            }
          }
        }
      },
      {
        "name": "bert/encoder/layer_11/attention/self/Reshape_1/shape/3",
        "op": "Const",
        "attr": {
          "value": {
            "tensor": {
              "dtype": "DT_INT32",
              "tensorShape": {}
            }
          },
          "dtype": {
            "type": "DT_INT32"
          }
        }
      },
      {
        "name": "bert/encoder/layer_11/attention/self/transpose_1/perm",
        "op": "Const",
        "attr": {
          "value": {
            "tensor": {
              "dtype": "DT_INT32",
              "tensorShape": {
                "dim": [
                  {
                    "size": "4"
                  }
                ]
              }
            }
          },
          "dtype": {
            "type": "DT_INT32"
          }
        }
      },
      {
        "name": "bert/encoder/layer_11/attention/self/Mul/y",
        "op": "Const",
        "attr": {
          "value": {
            "tensor": {
              "dtype": "DT_FLOAT",
              "tensorShape": {}
            }
          },
          "dtype": {
            "type": "DT_FLOAT"
          }
        }
      },
      {
        "name": "bert/encoder/layer_11/attention/self/sub/x",
        "op": "Const",
        "attr": {
          "dtype": {
            "type": "DT_FLOAT"
          },
          "value": {
            "tensor": {
              "dtype": "DT_FLOAT",
              "tensorShape": {}
            }
          }
        }
      },
      {
        "name": "bert/encoder/layer_11/attention/self/ExpandDims/dim",
        "op": "Const",
        "attr": {
          "dtype": {
            "type": "DT_INT32"
          },
          "value": {
            "tensor": {
              "dtype": "DT_INT32",
              "tensorShape": {
                "dim": [
                  {
                    "size": "1"
                  }
                ]
              }
            }
          }
        }
      },
      {
        "name": "bert/encoder/layer_11/attention/self/mul_1/y",
        "op": "Const",
        "attr": {
          "dtype": {
            "type": "DT_FLOAT"
          },
          "value": {
            "tensor": {
              "dtype": "DT_FLOAT",
              "tensorShape": {}
            }
          }
        }
      },
      {
        "name": "bert/encoder/layer_11/attention/self/dropout/rate",
        "op": "Const",
        "attr": {
          "value": {
            "tensor": {
              "dtype": "DT_FLOAT",
              "tensorShape": {}
            }
          },
          "dtype": {
            "type": "DT_FLOAT"
          }
        }
      },
      {
        "name": "bert/encoder/layer_11/attention/self/value/kernel",
        "op": "Const",
        "attr": {
          "value": {
            "tensor": {
              "dtype": "DT_FLOAT",
              "tensorShape": {
                "dim": [
                  {
                    "size": "768"
                  },
                  {
                    "size": "768"
                  }
                ]
              }
            }
          },
          "dtype": {
            "type": "DT_FLOAT"
          }
        }
      },
      {
        "name": "bert/encoder/layer_11/attention/self/value/bias",
        "op": "Const",
        "attr": {
          "dtype": {
            "type": "DT_FLOAT"
          },
          "value": {
            "tensor": {
              "dtype": "DT_FLOAT",
              "tensorShape": {
                "dim": [
                  {
                    "size": "768"
                  }
                ]
              }
            }
          }
        }
      },
      {
        "name": "bert/encoder/layer_11/attention/self/Reshape_2/shape/2",
        "op": "Const",
        "attr": {
          "dtype": {
            "type": "DT_INT32"
          },
          "value": {
            "tensor": {
              "dtype": "DT_INT32",
              "tensorShape": {}
            }
          }
        }
      },
      {
        "name": "bert/encoder/layer_11/attention/self/Reshape_2/shape/3",
        "op": "Const",
        "attr": {
          "value": {
            "tensor": {
              "dtype": "DT_INT32",
              "tensorShape": {}
            }
          },
          "dtype": {
            "type": "DT_INT32"
          }
        }
      },
      {
        "name": "bert/encoder/layer_11/attention/self/transpose_2/perm",
        "op": "Const",
        "attr": {
          "dtype": {
            "type": "DT_INT32"
          },
          "value": {
            "tensor": {
              "dtype": "DT_INT32",
              "tensorShape": {
                "dim": [
                  {
                    "size": "4"
                  }
                ]
              }
            }
          }
        }
      },
      {
        "name": "bert/encoder/layer_11/attention/self/transpose_3/perm",
        "op": "Const",
        "attr": {
          "dtype": {
            "type": "DT_INT32"
          },
          "value": {
            "tensor": {
              "dtype": "DT_INT32",
              "tensorShape": {
                "dim": [
                  {
                    "size": "4"
                  }
                ]
              }
            }
          }
        }
      },
      {
        "name": "bert/encoder/layer_11/attention/self/Reshape_3/shape/1",
        "op": "Const",
        "attr": {
          "value": {
            "tensor": {
              "dtype": "DT_INT32",
              "tensorShape": {}
            }
          },
          "dtype": {
            "type": "DT_INT32"
          }
        }
      },
      {
        "name": "bert/encoder/layer_11/attention/output/dense/kernel",
        "op": "Const",
        "attr": {
          "dtype": {
            "type": "DT_FLOAT"
          },
          "value": {
            "tensor": {
              "dtype": "DT_FLOAT",
              "tensorShape": {
                "dim": [
                  {
                    "size": "768"
                  },
                  {
                    "size": "768"
                  }
                ]
              }
            }
          }
        }
      },
      {
        "name": "bert/encoder/layer_11/attention/output/dense/bias",
        "op": "Const",
        "attr": {
          "value": {
            "tensor": {
              "dtype": "DT_FLOAT",
              "tensorShape": {
                "dim": [
                  {
                    "size": "768"
                  }
                ]
              }
            }
          },
          "dtype": {
            "type": "DT_FLOAT"
          }
        }
      },
      {
        "name": "bert/encoder/layer_11/attention/output/dropout/rate",
        "op": "Const",
        "attr": {
          "dtype": {
            "type": "DT_FLOAT"
          },
          "value": {
            "tensor": {
              "dtype": "DT_FLOAT",
              "tensorShape": {}
            }
          }
        }
      },
      {
        "name": "bert/encoder/layer_10/output/LayerNorm/beta",
        "op": "Const",
        "attr": {
          "value": {
            "tensor": {
              "dtype": "DT_FLOAT",
              "tensorShape": {
                "dim": [
                  {
                    "size": "768"
                  }
                ]
              }
            }
          },
          "dtype": {
            "type": "DT_FLOAT"
          }
        }
      },
      {
        "name": "bert/encoder/layer_10/output/dropout/truediv",
        "op": "Const",
        "attr": {
          "value": {
            "tensor": {
              "dtype": "DT_FLOAT",
              "tensorShape": {}
            }
          },
          "dtype": {
            "type": "DT_FLOAT"
          }
        }
      },
      {
        "name": "bert/encoder/layer_10/intermediate/dense/mul_2/x",
        "op": "Const",
        "attr": {
          "value": {
            "tensor": {
              "dtype": "DT_FLOAT",
              "tensorShape": {}
            }
          },
          "dtype": {
            "type": "DT_FLOAT"
          }
        }
      },
      {
        "name": "bert/encoder/layer_10/intermediate/dense/add_1/x",
        "op": "Const",
        "attr": {
          "value": {
            "tensor": {
              "dtype": "DT_FLOAT",
              "tensorShape": {}
            }
          },
          "dtype": {
            "type": "DT_FLOAT"
          }
        }
      },
      {
        "name": "bert/encoder/layer_10/intermediate/dense/mul_1/x",
        "op": "Const",
        "attr": {
          "value": {
            "tensor": {
              "dtype": "DT_FLOAT",
              "tensorShape": {}
            }
          },
          "dtype": {
            "type": "DT_FLOAT"
          }
        }
      },
      {
        "name": "bert/encoder/layer_10/intermediate/dense/mul/x",
        "op": "Const",
        "attr": {
          "dtype": {
            "type": "DT_FLOAT"
          },
          "value": {
            "tensor": {
              "dtype": "DT_FLOAT",
              "tensorShape": {}
            }
          }
        }
      },
      {
        "name": "bert/encoder/layer_10/intermediate/dense/kernel",
        "op": "Const",
        "attr": {
          "dtype": {
            "type": "DT_FLOAT"
          },
          "value": {
            "tensor": {
              "dtype": "DT_FLOAT",
              "tensorShape": {
                "dim": [
                  {
                    "size": "768"
                  },
                  {
                    "size": "3072"
                  }
                ]
              }
            }
          }
        }
      },
      {
        "name": "bert/encoder/layer_10/intermediate/dense/bias",
        "op": "Const",
        "attr": {
          "dtype": {
            "type": "DT_FLOAT"
          },
          "value": {
            "tensor": {
              "dtype": "DT_FLOAT",
              "tensorShape": {
                "dim": [
                  {
                    "size": "3072"
                  }
                ]
              }
            }
          }
        }
      },
      {
        "name": "bert/encoder/layer_10/intermediate/dense/Pow/y",
        "op": "Const",
        "attr": {
          "dtype": {
            "type": "DT_FLOAT"
          },
          "value": {
            "tensor": {
              "dtype": "DT_FLOAT",
              "tensorShape": {}
            }
          }
        }
      },
      {
        "name": "bert/encoder/layer_10/output/dense/kernel",
        "op": "Const",
        "attr": {
          "dtype": {
            "type": "DT_FLOAT"
          },
          "value": {
            "tensor": {
              "dtype": "DT_FLOAT",
              "tensorShape": {
                "dim": [
                  {
                    "size": "3072"
                  },
                  {
                    "size": "768"
                  }
                ]
              }
            }
          }
        }
      },
      {
        "name": "bert/encoder/layer_10/output/dense/bias",
        "op": "Const",
        "attr": {
          "dtype": {
            "type": "DT_FLOAT"
          },
          "value": {
            "tensor": {
              "dtype": "DT_FLOAT",
              "tensorShape": {
                "dim": [
                  {
                    "size": "768"
                  }
                ]
              }
            }
          }
        }
      },
      {
        "name": "bert/encoder/layer_10/output/dropout/rate",
        "op": "Const",
        "attr": {
          "dtype": {
            "type": "DT_FLOAT"
          },
          "value": {
            "tensor": {
              "dtype": "DT_FLOAT",
              "tensorShape": {}
            }
          }
        }
      },
      {
        "name": "bert/encoder/layer_10/attention/output/LayerNorm/beta",
        "op": "Const",
        "attr": {
          "value": {
            "tensor": {
              "dtype": "DT_FLOAT",
              "tensorShape": {
                "dim": [
                  {
                    "size": "768"
                  }
                ]
              }
            }
          },
          "dtype": {
            "type": "DT_FLOAT"
          }
        }
      },
      {
        "name": "bert/encoder/layer_10/attention/output/dropout/truediv",
        "op": "Const",
        "attr": {
          "dtype": {
            "type": "DT_FLOAT"
          },
          "value": {
            "tensor": {
              "dtype": "DT_FLOAT",
              "tensorShape": {}
            }
          }
        }
      },
      {
        "name": "bert/encoder/layer_10/attention/self/dropout/truediv",
        "op": "Const",
        "attr": {
          "dtype": {
            "type": "DT_FLOAT"
          },
          "value": {
            "tensor": {
              "dtype": "DT_FLOAT",
              "tensorShape": {}
            }
          }
        }
      },
      {
        "name": "bert/encoder/layer_10/attention/self/query/kernel",
        "op": "Const",
        "attr": {
          "value": {
            "tensor": {
              "dtype": "DT_FLOAT",
              "tensorShape": {
                "dim": [
                  {
                    "size": "768"
                  },
                  {
                    "size": "768"
                  }
                ]
              }
            }
          },
          "dtype": {
            "type": "DT_FLOAT"
          }
        }
      },
      {
        "name": "bert/encoder/layer_10/attention/self/query/bias",
        "op": "Const",
        "attr": {
          "value": {
            "tensor": {
              "dtype": "DT_FLOAT",
              "tensorShape": {
                "dim": [
                  {
                    "size": "768"
                  }
                ]
              }
            }
          },
          "dtype": {
            "type": "DT_FLOAT"
          }
        }
      },
      {
        "name": "bert/encoder/layer_10/attention/self/Reshape/shape/2",
        "op": "Const",
        "attr": {
          "dtype": {
            "type": "DT_INT32"
          },
          "value": {
            "tensor": {
              "dtype": "DT_INT32",
              "tensorShape": {}
            }
          }
        }
      },
      {
        "name": "bert/encoder/layer_10/attention/self/Reshape/shape/3",
        "op": "Const",
        "attr": {
          "value": {
            "tensor": {
              "dtype": "DT_INT32",
              "tensorShape": {}
            }
          },
          "dtype": {
            "type": "DT_INT32"
          }
        }
      },
      {
        "name": "bert/encoder/layer_10/attention/self/transpose/perm",
        "op": "Const",
        "attr": {
          "value": {
            "tensor": {
              "dtype": "DT_INT32",
              "tensorShape": {
                "dim": [
                  {
                    "size": "4"
                  }
                ]
              }
            }
          },
          "dtype": {
            "type": "DT_INT32"
          }
        }
      },
      {
        "name": "bert/encoder/layer_10/attention/self/key/kernel",
        "op": "Const",
        "attr": {
          "value": {
            "tensor": {
              "dtype": "DT_FLOAT",
              "tensorShape": {
                "dim": [
                  {
                    "size": "768"
                  },
                  {
                    "size": "768"
                  }
                ]
              }
            }
          },
          "dtype": {
            "type": "DT_FLOAT"
          }
        }
      },
      {
        "name": "bert/encoder/layer_10/attention/self/key/bias",
        "op": "Const",
        "attr": {
          "value": {
            "tensor": {
              "dtype": "DT_FLOAT",
              "tensorShape": {
                "dim": [
                  {
                    "size": "768"
                  }
                ]
              }
            }
          },
          "dtype": {
            "type": "DT_FLOAT"
          }
        }
      },
      {
        "name": "bert/encoder/layer_10/attention/self/Reshape_1/shape/2",
        "op": "Const",
        "attr": {
          "dtype": {
            "type": "DT_INT32"
          },
          "value": {
            "tensor": {
              "dtype": "DT_INT32",
              "tensorShape": {}
            }
          }
        }
      },
      {
        "name": "bert/encoder/layer_10/attention/self/Reshape_1/shape/3",
        "op": "Const",
        "attr": {
          "value": {
            "tensor": {
              "dtype": "DT_INT32",
              "tensorShape": {}
            }
          },
          "dtype": {
            "type": "DT_INT32"
          }
        }
      },
      {
        "name": "bert/encoder/layer_10/attention/self/transpose_1/perm",
        "op": "Const",
        "attr": {
          "dtype": {
            "type": "DT_INT32"
          },
          "value": {
            "tensor": {
              "dtype": "DT_INT32",
              "tensorShape": {
                "dim": [
                  {
                    "size": "4"
                  }
                ]
              }
            }
          }
        }
      },
      {
        "name": "bert/encoder/layer_10/attention/self/Mul/y",
        "op": "Const",
        "attr": {
          "dtype": {
            "type": "DT_FLOAT"
          },
          "value": {
            "tensor": {
              "dtype": "DT_FLOAT",
              "tensorShape": {}
            }
          }
        }
      },
      {
        "name": "bert/encoder/layer_10/attention/self/sub/x",
        "op": "Const",
        "attr": {
          "dtype": {
            "type": "DT_FLOAT"
          },
          "value": {
            "tensor": {
              "dtype": "DT_FLOAT",
              "tensorShape": {}
            }
          }
        }
      },
      {
        "name": "bert/encoder/layer_10/attention/self/ExpandDims/dim",
        "op": "Const",
        "attr": {
          "value": {
            "tensor": {
              "dtype": "DT_INT32",
              "tensorShape": {
                "dim": [
                  {
                    "size": "1"
                  }
                ]
              }
            }
          },
          "dtype": {
            "type": "DT_INT32"
          }
        }
      },
      {
        "name": "bert/encoder/layer_10/attention/self/mul_1/y",
        "op": "Const",
        "attr": {
          "value": {
            "tensor": {
              "dtype": "DT_FLOAT",
              "tensorShape": {}
            }
          },
          "dtype": {
            "type": "DT_FLOAT"
          }
        }
      },
      {
        "name": "bert/encoder/layer_10/attention/self/dropout/rate",
        "op": "Const",
        "attr": {
          "dtype": {
            "type": "DT_FLOAT"
          },
          "value": {
            "tensor": {
              "dtype": "DT_FLOAT",
              "tensorShape": {}
            }
          }
        }
      },
      {
        "name": "bert/encoder/layer_10/attention/self/value/kernel",
        "op": "Const",
        "attr": {
          "dtype": {
            "type": "DT_FLOAT"
          },
          "value": {
            "tensor": {
              "dtype": "DT_FLOAT",
              "tensorShape": {
                "dim": [
                  {
                    "size": "768"
                  },
                  {
                    "size": "768"
                  }
                ]
              }
            }
          }
        }
      },
      {
        "name": "bert/encoder/layer_10/attention/self/value/bias",
        "op": "Const",
        "attr": {
          "value": {
            "tensor": {
              "dtype": "DT_FLOAT",
              "tensorShape": {
                "dim": [
                  {
                    "size": "768"
                  }
                ]
              }
            }
          },
          "dtype": {
            "type": "DT_FLOAT"
          }
        }
      },
      {
        "name": "bert/encoder/layer_10/attention/self/Reshape_2/shape/2",
        "op": "Const",
        "attr": {
          "dtype": {
            "type": "DT_INT32"
          },
          "value": {
            "tensor": {
              "dtype": "DT_INT32",
              "tensorShape": {}
            }
          }
        }
      },
      {
        "name": "bert/encoder/layer_10/attention/self/Reshape_2/shape/3",
        "op": "Const",
        "attr": {
          "value": {
            "tensor": {
              "dtype": "DT_INT32",
              "tensorShape": {}
            }
          },
          "dtype": {
            "type": "DT_INT32"
          }
        }
      },
      {
        "name": "bert/encoder/layer_10/attention/self/transpose_2/perm",
        "op": "Const",
        "attr": {
          "dtype": {
            "type": "DT_INT32"
          },
          "value": {
            "tensor": {
              "dtype": "DT_INT32",
              "tensorShape": {
                "dim": [
                  {
                    "size": "4"
                  }
                ]
              }
            }
          }
        }
      },
      {
        "name": "bert/encoder/layer_10/attention/self/transpose_3/perm",
        "op": "Const",
        "attr": {
          "dtype": {
            "type": "DT_INT32"
          },
          "value": {
            "tensor": {
              "dtype": "DT_INT32",
              "tensorShape": {
                "dim": [
                  {
                    "size": "4"
                  }
                ]
              }
            }
          }
        }
      },
      {
        "name": "bert/encoder/layer_10/attention/self/Reshape_3/shape/1",
        "op": "Const",
        "attr": {
          "value": {
            "tensor": {
              "dtype": "DT_INT32",
              "tensorShape": {}
            }
          },
          "dtype": {
            "type": "DT_INT32"
          }
        }
      },
      {
        "name": "bert/encoder/layer_10/attention/output/dense/kernel",
        "op": "Const",
        "attr": {
          "dtype": {
            "type": "DT_FLOAT"
          },
          "value": {
            "tensor": {
              "dtype": "DT_FLOAT",
              "tensorShape": {
                "dim": [
                  {
                    "size": "768"
                  },
                  {
                    "size": "768"
                  }
                ]
              }
            }
          }
        }
      },
      {
        "name": "bert/encoder/layer_10/attention/output/dense/bias",
        "op": "Const",
        "attr": {
          "dtype": {
            "type": "DT_FLOAT"
          },
          "value": {
            "tensor": {
              "dtype": "DT_FLOAT",
              "tensorShape": {
                "dim": [
                  {
                    "size": "768"
                  }
                ]
              }
            }
          }
        }
      },
      {
        "name": "bert/encoder/layer_10/attention/output/dropout/rate",
        "op": "Const",
        "attr": {
          "dtype": {
            "type": "DT_FLOAT"
          },
          "value": {
            "tensor": {
              "dtype": "DT_FLOAT",
              "tensorShape": {}
            }
          }
        }
      },
      {
        "name": "bert/encoder/layer_9/output/LayerNorm/beta",
        "op": "Const",
        "attr": {
          "value": {
            "tensor": {
              "dtype": "DT_FLOAT",
              "tensorShape": {
                "dim": [
                  {
                    "size": "768"
                  }
                ]
              }
            }
          },
          "dtype": {
            "type": "DT_FLOAT"
          }
        }
      },
      {
        "name": "bert/encoder/layer_9/output/dropout/truediv",
        "op": "Const",
        "attr": {
          "value": {
            "tensor": {
              "dtype": "DT_FLOAT",
              "tensorShape": {}
            }
          },
          "dtype": {
            "type": "DT_FLOAT"
          }
        }
      },
      {
        "name": "bert/encoder/layer_9/intermediate/dense/mul_2/x",
        "op": "Const",
        "attr": {
          "value": {
            "tensor": {
              "dtype": "DT_FLOAT",
              "tensorShape": {}
            }
          },
          "dtype": {
            "type": "DT_FLOAT"
          }
        }
      },
      {
        "name": "bert/encoder/layer_9/intermediate/dense/add_1/x",
        "op": "Const",
        "attr": {
          "value": {
            "tensor": {
              "dtype": "DT_FLOAT",
              "tensorShape": {}
            }
          },
          "dtype": {
            "type": "DT_FLOAT"
          }
        }
      },
      {
        "name": "bert/encoder/layer_9/intermediate/dense/mul_1/x",
        "op": "Const",
        "attr": {
          "value": {
            "tensor": {
              "dtype": "DT_FLOAT",
              "tensorShape": {}
            }
          },
          "dtype": {
            "type": "DT_FLOAT"
          }
        }
      },
      {
        "name": "bert/encoder/layer_9/intermediate/dense/mul/x",
        "op": "Const",
        "attr": {
          "dtype": {
            "type": "DT_FLOAT"
          },
          "value": {
            "tensor": {
              "dtype": "DT_FLOAT",
              "tensorShape": {}
            }
          }
        }
      },
      {
        "name": "bert/encoder/layer_9/intermediate/dense/kernel",
        "op": "Const",
        "attr": {
          "value": {
            "tensor": {
              "dtype": "DT_FLOAT",
              "tensorShape": {
                "dim": [
                  {
                    "size": "768"
                  },
                  {
                    "size": "3072"
                  }
                ]
              }
            }
          },
          "dtype": {
            "type": "DT_FLOAT"
          }
        }
      },
      {
        "name": "bert/encoder/layer_9/intermediate/dense/bias",
        "op": "Const",
        "attr": {
          "dtype": {
            "type": "DT_FLOAT"
          },
          "value": {
            "tensor": {
              "dtype": "DT_FLOAT",
              "tensorShape": {
                "dim": [
                  {
                    "size": "3072"
                  }
                ]
              }
            }
          }
        }
      },
      {
        "name": "bert/encoder/layer_9/intermediate/dense/Pow/y",
        "op": "Const",
        "attr": {
          "value": {
            "tensor": {
              "dtype": "DT_FLOAT",
              "tensorShape": {}
            }
          },
          "dtype": {
            "type": "DT_FLOAT"
          }
        }
      },
      {
        "name": "bert/encoder/layer_9/output/dense/kernel",
        "op": "Const",
        "attr": {
          "dtype": {
            "type": "DT_FLOAT"
          },
          "value": {
            "tensor": {
              "dtype": "DT_FLOAT",
              "tensorShape": {
                "dim": [
                  {
                    "size": "3072"
                  },
                  {
                    "size": "768"
                  }
                ]
              }
            }
          }
        }
      },
      {
        "name": "bert/encoder/layer_9/output/dense/bias",
        "op": "Const",
        "attr": {
          "value": {
            "tensor": {
              "dtype": "DT_FLOAT",
              "tensorShape": {
                "dim": [
                  {
                    "size": "768"
                  }
                ]
              }
            }
          },
          "dtype": {
            "type": "DT_FLOAT"
          }
        }
      },
      {
        "name": "bert/encoder/layer_9/output/dropout/rate",
        "op": "Const",
        "attr": {
          "value": {
            "tensor": {
              "dtype": "DT_FLOAT",
              "tensorShape": {}
            }
          },
          "dtype": {
            "type": "DT_FLOAT"
          }
        }
      },
      {
        "name": "bert/encoder/layer_9/attention/output/LayerNorm/beta",
        "op": "Const",
        "attr": {
          "value": {
            "tensor": {
              "dtype": "DT_FLOAT",
              "tensorShape": {
                "dim": [
                  {
                    "size": "768"
                  }
                ]
              }
            }
          },
          "dtype": {
            "type": "DT_FLOAT"
          }
        }
      },
      {
        "name": "bert/encoder/layer_9/attention/output/dropout/truediv",
        "op": "Const",
        "attr": {
          "value": {
            "tensor": {
              "dtype": "DT_FLOAT",
              "tensorShape": {}
            }
          },
          "dtype": {
            "type": "DT_FLOAT"
          }
        }
      },
      {
        "name": "bert/encoder/layer_9/attention/self/dropout/truediv",
        "op": "Const",
        "attr": {
          "value": {
            "tensor": {
              "dtype": "DT_FLOAT",
              "tensorShape": {}
            }
          },
          "dtype": {
            "type": "DT_FLOAT"
          }
        }
      },
      {
        "name": "bert/encoder/layer_9/attention/self/query/kernel",
        "op": "Const",
        "attr": {
          "value": {
            "tensor": {
              "dtype": "DT_FLOAT",
              "tensorShape": {
                "dim": [
                  {
                    "size": "768"
                  },
                  {
                    "size": "768"
                  }
                ]
              }
            }
          },
          "dtype": {
            "type": "DT_FLOAT"
          }
        }
      },
      {
        "name": "bert/encoder/layer_9/attention/self/query/bias",
        "op": "Const",
        "attr": {
          "dtype": {
            "type": "DT_FLOAT"
          },
          "value": {
            "tensor": {
              "dtype": "DT_FLOAT",
              "tensorShape": {
                "dim": [
                  {
                    "size": "768"
                  }
                ]
              }
            }
          }
        }
      },
      {
        "name": "bert/encoder/layer_9/attention/self/Reshape/shape/2",
        "op": "Const",
        "attr": {
          "value": {
            "tensor": {
              "dtype": "DT_INT32",
              "tensorShape": {}
            }
          },
          "dtype": {
            "type": "DT_INT32"
          }
        }
      },
      {
        "name": "bert/encoder/layer_9/attention/self/Reshape/shape/3",
        "op": "Const",
        "attr": {
          "dtype": {
            "type": "DT_INT32"
          },
          "value": {
            "tensor": {
              "dtype": "DT_INT32",
              "tensorShape": {}
            }
          }
        }
      },
      {
        "name": "bert/encoder/layer_9/attention/self/transpose/perm",
        "op": "Const",
        "attr": {
          "dtype": {
            "type": "DT_INT32"
          },
          "value": {
            "tensor": {
              "dtype": "DT_INT32",
              "tensorShape": {
                "dim": [
                  {
                    "size": "4"
                  }
                ]
              }
            }
          }
        }
      },
      {
        "name": "bert/encoder/layer_9/attention/self/key/kernel",
        "op": "Const",
        "attr": {
          "dtype": {
            "type": "DT_FLOAT"
          },
          "value": {
            "tensor": {
              "dtype": "DT_FLOAT",
              "tensorShape": {
                "dim": [
                  {
                    "size": "768"
                  },
                  {
                    "size": "768"
                  }
                ]
              }
            }
          }
        }
      },
      {
        "name": "bert/encoder/layer_9/attention/self/key/bias",
        "op": "Const",
        "attr": {
          "dtype": {
            "type": "DT_FLOAT"
          },
          "value": {
            "tensor": {
              "dtype": "DT_FLOAT",
              "tensorShape": {
                "dim": [
                  {
                    "size": "768"
                  }
                ]
              }
            }
          }
        }
      },
      {
        "name": "bert/encoder/layer_9/attention/self/Reshape_1/shape/2",
        "op": "Const",
        "attr": {
          "value": {
            "tensor": {
              "dtype": "DT_INT32",
              "tensorShape": {}
            }
          },
          "dtype": {
            "type": "DT_INT32"
          }
        }
      },
      {
        "name": "bert/encoder/layer_9/attention/self/Reshape_1/shape/3",
        "op": "Const",
        "attr": {
          "value": {
            "tensor": {
              "dtype": "DT_INT32",
              "tensorShape": {}
            }
          },
          "dtype": {
            "type": "DT_INT32"
          }
        }
      },
      {
        "name": "bert/encoder/layer_9/attention/self/transpose_1/perm",
        "op": "Const",
        "attr": {
          "value": {
            "tensor": {
              "dtype": "DT_INT32",
              "tensorShape": {
                "dim": [
                  {
                    "size": "4"
                  }
                ]
              }
            }
          },
          "dtype": {
            "type": "DT_INT32"
          }
        }
      },
      {
        "name": "bert/encoder/layer_9/attention/self/Mul/y",
        "op": "Const",
        "attr": {
          "value": {
            "tensor": {
              "dtype": "DT_FLOAT",
              "tensorShape": {}
            }
          },
          "dtype": {
            "type": "DT_FLOAT"
          }
        }
      },
      {
        "name": "bert/encoder/layer_9/attention/self/sub/x",
        "op": "Const",
        "attr": {
          "value": {
            "tensor": {
              "dtype": "DT_FLOAT",
              "tensorShape": {}
            }
          },
          "dtype": {
            "type": "DT_FLOAT"
          }
        }
      },
      {
        "name": "bert/encoder/layer_9/attention/self/ExpandDims/dim",
        "op": "Const",
        "attr": {
          "value": {
            "tensor": {
              "dtype": "DT_INT32",
              "tensorShape": {
                "dim": [
                  {
                    "size": "1"
                  }
                ]
              }
            }
          },
          "dtype": {
            "type": "DT_INT32"
          }
        }
      },
      {
        "name": "bert/encoder/layer_9/attention/self/mul_1/y",
        "op": "Const",
        "attr": {
          "value": {
            "tensor": {
              "dtype": "DT_FLOAT",
              "tensorShape": {}
            }
          },
          "dtype": {
            "type": "DT_FLOAT"
          }
        }
      },
      {
        "name": "bert/encoder/layer_9/attention/self/dropout/rate",
        "op": "Const",
        "attr": {
          "value": {
            "tensor": {
              "dtype": "DT_FLOAT",
              "tensorShape": {}
            }
          },
          "dtype": {
            "type": "DT_FLOAT"
          }
        }
      },
      {
        "name": "bert/encoder/layer_9/attention/self/value/kernel",
        "op": "Const",
        "attr": {
          "value": {
            "tensor": {
              "dtype": "DT_FLOAT",
              "tensorShape": {
                "dim": [
                  {
                    "size": "768"
                  },
                  {
                    "size": "768"
                  }
                ]
              }
            }
          },
          "dtype": {
            "type": "DT_FLOAT"
          }
        }
      },
      {
        "name": "bert/encoder/layer_9/attention/self/value/bias",
        "op": "Const",
        "attr": {
          "dtype": {
            "type": "DT_FLOAT"
          },
          "value": {
            "tensor": {
              "dtype": "DT_FLOAT",
              "tensorShape": {
                "dim": [
                  {
                    "size": "768"
                  }
                ]
              }
            }
          }
        }
      },
      {
        "name": "bert/encoder/layer_9/attention/self/Reshape_2/shape/2",
        "op": "Const",
        "attr": {
          "value": {
            "tensor": {
              "dtype": "DT_INT32",
              "tensorShape": {}
            }
          },
          "dtype": {
            "type": "DT_INT32"
          }
        }
      },
      {
        "name": "bert/encoder/layer_9/attention/self/Reshape_2/shape/3",
        "op": "Const",
        "attr": {
          "dtype": {
            "type": "DT_INT32"
          },
          "value": {
            "tensor": {
              "dtype": "DT_INT32",
              "tensorShape": {}
            }
          }
        }
      },
      {
        "name": "bert/encoder/layer_9/attention/self/transpose_2/perm",
        "op": "Const",
        "attr": {
          "value": {
            "tensor": {
              "dtype": "DT_INT32",
              "tensorShape": {
                "dim": [
                  {
                    "size": "4"
                  }
                ]
              }
            }
          },
          "dtype": {
            "type": "DT_INT32"
          }
        }
      },
      {
        "name": "bert/encoder/layer_9/attention/self/transpose_3/perm",
        "op": "Const",
        "attr": {
          "dtype": {
            "type": "DT_INT32"
          },
          "value": {
            "tensor": {
              "dtype": "DT_INT32",
              "tensorShape": {
                "dim": [
                  {
                    "size": "4"
                  }
                ]
              }
            }
          }
        }
      },
      {
        "name": "bert/encoder/layer_9/attention/self/Reshape_3/shape/1",
        "op": "Const",
        "attr": {
          "dtype": {
            "type": "DT_INT32"
          },
          "value": {
            "tensor": {
              "dtype": "DT_INT32",
              "tensorShape": {}
            }
          }
        }
      },
      {
        "name": "bert/encoder/layer_9/attention/output/dense/kernel",
        "op": "Const",
        "attr": {
          "value": {
            "tensor": {
              "dtype": "DT_FLOAT",
              "tensorShape": {
                "dim": [
                  {
                    "size": "768"
                  },
                  {
                    "size": "768"
                  }
                ]
              }
            }
          },
          "dtype": {
            "type": "DT_FLOAT"
          }
        }
      },
      {
        "name": "bert/encoder/layer_9/attention/output/dense/bias",
        "op": "Const",
        "attr": {
          "value": {
            "tensor": {
              "dtype": "DT_FLOAT",
              "tensorShape": {
                "dim": [
                  {
                    "size": "768"
                  }
                ]
              }
            }
          },
          "dtype": {
            "type": "DT_FLOAT"
          }
        }
      },
      {
        "name": "bert/encoder/layer_9/attention/output/dropout/rate",
        "op": "Const",
        "attr": {
          "dtype": {
            "type": "DT_FLOAT"
          },
          "value": {
            "tensor": {
              "dtype": "DT_FLOAT",
              "tensorShape": {}
            }
          }
        }
      },
      {
        "name": "bert/encoder/layer_8/output/LayerNorm/beta",
        "op": "Const",
        "attr": {
          "dtype": {
            "type": "DT_FLOAT"
          },
          "value": {
            "tensor": {
              "dtype": "DT_FLOAT",
              "tensorShape": {
                "dim": [
                  {
                    "size": "768"
                  }
                ]
              }
            }
          }
        }
      },
      {
        "name": "bert/encoder/layer_8/output/dropout/truediv",
        "op": "Const",
        "attr": {
          "dtype": {
            "type": "DT_FLOAT"
          },
          "value": {
            "tensor": {
              "dtype": "DT_FLOAT",
              "tensorShape": {}
            }
          }
        }
      },
      {
        "name": "bert/encoder/layer_8/intermediate/dense/mul_2/x",
        "op": "Const",
        "attr": {
          "value": {
            "tensor": {
              "dtype": "DT_FLOAT",
              "tensorShape": {}
            }
          },
          "dtype": {
            "type": "DT_FLOAT"
          }
        }
      },
      {
        "name": "bert/encoder/layer_8/intermediate/dense/add_1/x",
        "op": "Const",
        "attr": {
          "dtype": {
            "type": "DT_FLOAT"
          },
          "value": {
            "tensor": {
              "dtype": "DT_FLOAT",
              "tensorShape": {}
            }
          }
        }
      },
      {
        "name": "bert/encoder/layer_8/intermediate/dense/mul_1/x",
        "op": "Const",
        "attr": {
          "value": {
            "tensor": {
              "dtype": "DT_FLOAT",
              "tensorShape": {}
            }
          },
          "dtype": {
            "type": "DT_FLOAT"
          }
        }
      },
      {
        "name": "bert/encoder/layer_8/intermediate/dense/mul/x",
        "op": "Const",
        "attr": {
          "value": {
            "tensor": {
              "dtype": "DT_FLOAT",
              "tensorShape": {}
            }
          },
          "dtype": {
            "type": "DT_FLOAT"
          }
        }
      },
      {
        "name": "bert/encoder/layer_8/intermediate/dense/kernel",
        "op": "Const",
        "attr": {
          "dtype": {
            "type": "DT_FLOAT"
          },
          "value": {
            "tensor": {
              "dtype": "DT_FLOAT",
              "tensorShape": {
                "dim": [
                  {
                    "size": "768"
                  },
                  {
                    "size": "3072"
                  }
                ]
              }
            }
          }
        }
      },
      {
        "name": "bert/encoder/layer_8/intermediate/dense/bias",
        "op": "Const",
        "attr": {
          "value": {
            "tensor": {
              "dtype": "DT_FLOAT",
              "tensorShape": {
                "dim": [
                  {
                    "size": "3072"
                  }
                ]
              }
            }
          },
          "dtype": {
            "type": "DT_FLOAT"
          }
        }
      },
      {
        "name": "bert/encoder/layer_8/intermediate/dense/Pow/y",
        "op": "Const",
        "attr": {
          "dtype": {
            "type": "DT_FLOAT"
          },
          "value": {
            "tensor": {
              "dtype": "DT_FLOAT",
              "tensorShape": {}
            }
          }
        }
      },
      {
        "name": "bert/encoder/layer_8/output/dense/kernel",
        "op": "Const",
        "attr": {
          "value": {
            "tensor": {
              "dtype": "DT_FLOAT",
              "tensorShape": {
                "dim": [
                  {
                    "size": "3072"
                  },
                  {
                    "size": "768"
                  }
                ]
              }
            }
          },
          "dtype": {
            "type": "DT_FLOAT"
          }
        }
      },
      {
        "name": "bert/encoder/layer_8/output/dense/bias",
        "op": "Const",
        "attr": {
          "dtype": {
            "type": "DT_FLOAT"
          },
          "value": {
            "tensor": {
              "dtype": "DT_FLOAT",
              "tensorShape": {
                "dim": [
                  {
                    "size": "768"
                  }
                ]
              }
            }
          }
        }
      },
      {
        "name": "bert/encoder/layer_8/output/dropout/rate",
        "op": "Const",
        "attr": {
          "dtype": {
            "type": "DT_FLOAT"
          },
          "value": {
            "tensor": {
              "dtype": "DT_FLOAT",
              "tensorShape": {}
            }
          }
        }
      },
      {
        "name": "bert/encoder/layer_8/attention/output/LayerNorm/beta",
        "op": "Const",
        "attr": {
          "dtype": {
            "type": "DT_FLOAT"
          },
          "value": {
            "tensor": {
              "dtype": "DT_FLOAT",
              "tensorShape": {
                "dim": [
                  {
                    "size": "768"
                  }
                ]
              }
            }
          }
        }
      },
      {
        "name": "bert/encoder/layer_8/attention/output/dropout/truediv",
        "op": "Const",
        "attr": {
          "value": {
            "tensor": {
              "dtype": "DT_FLOAT",
              "tensorShape": {}
            }
          },
          "dtype": {
            "type": "DT_FLOAT"
          }
        }
      },
      {
        "name": "bert/encoder/layer_8/attention/self/dropout/truediv",
        "op": "Const",
        "attr": {
          "value": {
            "tensor": {
              "dtype": "DT_FLOAT",
              "tensorShape": {}
            }
          },
          "dtype": {
            "type": "DT_FLOAT"
          }
        }
      },
      {
        "name": "bert/encoder/layer_8/attention/self/query/kernel",
        "op": "Const",
        "attr": {
          "dtype": {
            "type": "DT_FLOAT"
          },
          "value": {
            "tensor": {
              "dtype": "DT_FLOAT",
              "tensorShape": {
                "dim": [
                  {
                    "size": "768"
                  },
                  {
                    "size": "768"
                  }
                ]
              }
            }
          }
        }
      },
      {
        "name": "bert/encoder/layer_8/attention/self/query/bias",
        "op": "Const",
        "attr": {
          "value": {
            "tensor": {
              "dtype": "DT_FLOAT",
              "tensorShape": {
                "dim": [
                  {
                    "size": "768"
                  }
                ]
              }
            }
          },
          "dtype": {
            "type": "DT_FLOAT"
          }
        }
      },
      {
        "name": "bert/encoder/layer_8/attention/self/Reshape/shape/2",
        "op": "Const",
        "attr": {
          "dtype": {
            "type": "DT_INT32"
          },
          "value": {
            "tensor": {
              "dtype": "DT_INT32",
              "tensorShape": {}
            }
          }
        }
      },
      {
        "name": "bert/encoder/layer_8/attention/self/Reshape/shape/3",
        "op": "Const",
        "attr": {
          "dtype": {
            "type": "DT_INT32"
          },
          "value": {
            "tensor": {
              "dtype": "DT_INT32",
              "tensorShape": {}
            }
          }
        }
      },
      {
        "name": "bert/encoder/layer_8/attention/self/transpose/perm",
        "op": "Const",
        "attr": {
          "value": {
            "tensor": {
              "dtype": "DT_INT32",
              "tensorShape": {
                "dim": [
                  {
                    "size": "4"
                  }
                ]
              }
            }
          },
          "dtype": {
            "type": "DT_INT32"
          }
        }
      },
      {
        "name": "bert/encoder/layer_8/attention/self/key/kernel",
        "op": "Const",
        "attr": {
          "dtype": {
            "type": "DT_FLOAT"
          },
          "value": {
            "tensor": {
              "dtype": "DT_FLOAT",
              "tensorShape": {
                "dim": [
                  {
                    "size": "768"
                  },
                  {
                    "size": "768"
                  }
                ]
              }
            }
          }
        }
      },
      {
        "name": "bert/encoder/layer_8/attention/self/key/bias",
        "op": "Const",
        "attr": {
          "value": {
            "tensor": {
              "dtype": "DT_FLOAT",
              "tensorShape": {
                "dim": [
                  {
                    "size": "768"
                  }
                ]
              }
            }
          },
          "dtype": {
            "type": "DT_FLOAT"
          }
        }
      },
      {
        "name": "bert/encoder/layer_8/attention/self/Reshape_1/shape/2",
        "op": "Const",
        "attr": {
          "dtype": {
            "type": "DT_INT32"
          },
          "value": {
            "tensor": {
              "dtype": "DT_INT32",
              "tensorShape": {}
            }
          }
        }
      },
      {
        "name": "bert/encoder/layer_8/attention/self/Reshape_1/shape/3",
        "op": "Const",
        "attr": {
          "value": {
            "tensor": {
              "dtype": "DT_INT32",
              "tensorShape": {}
            }
          },
          "dtype": {
            "type": "DT_INT32"
          }
        }
      },
      {
        "name": "bert/encoder/layer_8/attention/self/transpose_1/perm",
        "op": "Const",
        "attr": {
          "value": {
            "tensor": {
              "dtype": "DT_INT32",
              "tensorShape": {
                "dim": [
                  {
                    "size": "4"
                  }
                ]
              }
            }
          },
          "dtype": {
            "type": "DT_INT32"
          }
        }
      },
      {
        "name": "bert/encoder/layer_8/attention/self/Mul/y",
        "op": "Const",
        "attr": {
          "value": {
            "tensor": {
              "dtype": "DT_FLOAT",
              "tensorShape": {}
            }
          },
          "dtype": {
            "type": "DT_FLOAT"
          }
        }
      },
      {
        "name": "bert/encoder/layer_8/attention/self/sub/x",
        "op": "Const",
        "attr": {
          "dtype": {
            "type": "DT_FLOAT"
          },
          "value": {
            "tensor": {
              "dtype": "DT_FLOAT",
              "tensorShape": {}
            }
          }
        }
      },
      {
        "name": "bert/encoder/layer_8/attention/self/ExpandDims/dim",
        "op": "Const",
        "attr": {
          "value": {
            "tensor": {
              "dtype": "DT_INT32",
              "tensorShape": {
                "dim": [
                  {
                    "size": "1"
                  }
                ]
              }
            }
          },
          "dtype": {
            "type": "DT_INT32"
          }
        }
      },
      {
        "name": "bert/encoder/layer_8/attention/self/mul_1/y",
        "op": "Const",
        "attr": {
          "dtype": {
            "type": "DT_FLOAT"
          },
          "value": {
            "tensor": {
              "dtype": "DT_FLOAT",
              "tensorShape": {}
            }
          }
        }
      },
      {
        "name": "bert/encoder/layer_8/attention/self/dropout/rate",
        "op": "Const",
        "attr": {
          "dtype": {
            "type": "DT_FLOAT"
          },
          "value": {
            "tensor": {
              "dtype": "DT_FLOAT",
              "tensorShape": {}
            }
          }
        }
      },
      {
        "name": "bert/encoder/layer_8/attention/self/value/kernel",
        "op": "Const",
        "attr": {
          "dtype": {
            "type": "DT_FLOAT"
          },
          "value": {
            "tensor": {
              "dtype": "DT_FLOAT",
              "tensorShape": {
                "dim": [
                  {
                    "size": "768"
                  },
                  {
                    "size": "768"
                  }
                ]
              }
            }
          }
        }
      },
      {
        "name": "bert/encoder/layer_8/attention/self/value/bias",
        "op": "Const",
        "attr": {
          "value": {
            "tensor": {
              "dtype": "DT_FLOAT",
              "tensorShape": {
                "dim": [
                  {
                    "size": "768"
                  }
                ]
              }
            }
          },
          "dtype": {
            "type": "DT_FLOAT"
          }
        }
      },
      {
        "name": "bert/encoder/layer_8/attention/self/Reshape_2/shape/2",
        "op": "Const",
        "attr": {
          "dtype": {
            "type": "DT_INT32"
          },
          "value": {
            "tensor": {
              "dtype": "DT_INT32",
              "tensorShape": {}
            }
          }
        }
      },
      {
        "name": "bert/encoder/layer_8/attention/self/Reshape_2/shape/3",
        "op": "Const",
        "attr": {
          "dtype": {
            "type": "DT_INT32"
          },
          "value": {
            "tensor": {
              "dtype": "DT_INT32",
              "tensorShape": {}
            }
          }
        }
      },
      {
        "name": "bert/encoder/layer_8/attention/self/transpose_2/perm",
        "op": "Const",
        "attr": {
          "value": {
            "tensor": {
              "dtype": "DT_INT32",
              "tensorShape": {
                "dim": [
                  {
                    "size": "4"
                  }
                ]
              }
            }
          },
          "dtype": {
            "type": "DT_INT32"
          }
        }
      },
      {
        "name": "bert/encoder/layer_8/attention/self/transpose_3/perm",
        "op": "Const",
        "attr": {
          "value": {
            "tensor": {
              "dtype": "DT_INT32",
              "tensorShape": {
                "dim": [
                  {
                    "size": "4"
                  }
                ]
              }
            }
          },
          "dtype": {
            "type": "DT_INT32"
          }
        }
      },
      {
        "name": "bert/encoder/layer_8/attention/self/Reshape_3/shape/1",
        "op": "Const",
        "attr": {
          "value": {
            "tensor": {
              "dtype": "DT_INT32",
              "tensorShape": {}
            }
          },
          "dtype": {
            "type": "DT_INT32"
          }
        }
      },
      {
        "name": "bert/encoder/layer_8/attention/output/dense/kernel",
        "op": "Const",
        "attr": {
          "dtype": {
            "type": "DT_FLOAT"
          },
          "value": {
            "tensor": {
              "dtype": "DT_FLOAT",
              "tensorShape": {
                "dim": [
                  {
                    "size": "768"
                  },
                  {
                    "size": "768"
                  }
                ]
              }
            }
          }
        }
      },
      {
        "name": "bert/encoder/layer_8/attention/output/dense/bias",
        "op": "Const",
        "attr": {
          "value": {
            "tensor": {
              "dtype": "DT_FLOAT",
              "tensorShape": {
                "dim": [
                  {
                    "size": "768"
                  }
                ]
              }
            }
          },
          "dtype": {
            "type": "DT_FLOAT"
          }
        }
      },
      {
        "name": "bert/encoder/layer_8/attention/output/dropout/rate",
        "op": "Const",
        "attr": {
          "dtype": {
            "type": "DT_FLOAT"
          },
          "value": {
            "tensor": {
              "dtype": "DT_FLOAT",
              "tensorShape": {}
            }
          }
        }
      },
      {
        "name": "bert/encoder/layer_7/output/LayerNorm/beta",
        "op": "Const",
        "attr": {
          "dtype": {
            "type": "DT_FLOAT"
          },
          "value": {
            "tensor": {
              "dtype": "DT_FLOAT",
              "tensorShape": {
                "dim": [
                  {
                    "size": "768"
                  }
                ]
              }
            }
          }
        }
      },
      {
        "name": "bert/encoder/layer_7/output/dropout/truediv",
        "op": "Const",
        "attr": {
          "dtype": {
            "type": "DT_FLOAT"
          },
          "value": {
            "tensor": {
              "dtype": "DT_FLOAT",
              "tensorShape": {}
            }
          }
        }
      },
      {
        "name": "bert/encoder/layer_7/intermediate/dense/mul_2/x",
        "op": "Const",
        "attr": {
          "value": {
            "tensor": {
              "dtype": "DT_FLOAT",
              "tensorShape": {}
            }
          },
          "dtype": {
            "type": "DT_FLOAT"
          }
        }
      },
      {
        "name": "bert/encoder/layer_7/intermediate/dense/add_1/x",
        "op": "Const",
        "attr": {
          "dtype": {
            "type": "DT_FLOAT"
          },
          "value": {
            "tensor": {
              "dtype": "DT_FLOAT",
              "tensorShape": {}
            }
          }
        }
      },
      {
        "name": "bert/encoder/layer_7/intermediate/dense/mul_1/x",
        "op": "Const",
        "attr": {
          "value": {
            "tensor": {
              "dtype": "DT_FLOAT",
              "tensorShape": {}
            }
          },
          "dtype": {
            "type": "DT_FLOAT"
          }
        }
      },
      {
        "name": "bert/encoder/layer_7/intermediate/dense/mul/x",
        "op": "Const",
        "attr": {
          "value": {
            "tensor": {
              "dtype": "DT_FLOAT",
              "tensorShape": {}
            }
          },
          "dtype": {
            "type": "DT_FLOAT"
          }
        }
      },
      {
        "name": "bert/encoder/layer_7/intermediate/dense/kernel",
        "op": "Const",
        "attr": {
          "value": {
            "tensor": {
              "dtype": "DT_FLOAT",
              "tensorShape": {
                "dim": [
                  {
                    "size": "768"
                  },
                  {
                    "size": "3072"
                  }
                ]
              }
            }
          },
          "dtype": {
            "type": "DT_FLOAT"
          }
        }
      },
      {
        "name": "bert/encoder/layer_7/intermediate/dense/bias",
        "op": "Const",
        "attr": {
          "dtype": {
            "type": "DT_FLOAT"
          },
          "value": {
            "tensor": {
              "dtype": "DT_FLOAT",
              "tensorShape": {
                "dim": [
                  {
                    "size": "3072"
                  }
                ]
              }
            }
          }
        }
      },
      {
        "name": "bert/encoder/layer_7/intermediate/dense/Pow/y",
        "op": "Const",
        "attr": {
          "dtype": {
            "type": "DT_FLOAT"
          },
          "value": {
            "tensor": {
              "dtype": "DT_FLOAT",
              "tensorShape": {}
            }
          }
        }
      },
      {
        "name": "bert/encoder/layer_7/output/dense/kernel",
        "op": "Const",
        "attr": {
          "value": {
            "tensor": {
              "dtype": "DT_FLOAT",
              "tensorShape": {
                "dim": [
                  {
                    "size": "3072"
                  },
                  {
                    "size": "768"
                  }
                ]
              }
            }
          },
          "dtype": {
            "type": "DT_FLOAT"
          }
        }
      },
      {
        "name": "bert/encoder/layer_7/output/dense/bias",
        "op": "Const",
        "attr": {
          "value": {
            "tensor": {
              "dtype": "DT_FLOAT",
              "tensorShape": {
                "dim": [
                  {
                    "size": "768"
                  }
                ]
              }
            }
          },
          "dtype": {
            "type": "DT_FLOAT"
          }
        }
      },
      {
        "name": "bert/encoder/layer_7/output/dropout/rate",
        "op": "Const",
        "attr": {
          "dtype": {
            "type": "DT_FLOAT"
          },
          "value": {
            "tensor": {
              "dtype": "DT_FLOAT",
              "tensorShape": {}
            }
          }
        }
      },
      {
        "name": "bert/encoder/layer_7/attention/output/LayerNorm/beta",
        "op": "Const",
        "attr": {
          "value": {
            "tensor": {
              "dtype": "DT_FLOAT",
              "tensorShape": {
                "dim": [
                  {
                    "size": "768"
                  }
                ]
              }
            }
          },
          "dtype": {
            "type": "DT_FLOAT"
          }
        }
      },
      {
        "name": "bert/encoder/layer_7/attention/output/dropout/truediv",
        "op": "Const",
        "attr": {
          "dtype": {
            "type": "DT_FLOAT"
          },
          "value": {
            "tensor": {
              "dtype": "DT_FLOAT",
              "tensorShape": {}
            }
          }
        }
      },
      {
        "name": "bert/encoder/layer_7/attention/self/dropout/truediv",
        "op": "Const",
        "attr": {
          "value": {
            "tensor": {
              "dtype": "DT_FLOAT",
              "tensorShape": {}
            }
          },
          "dtype": {
            "type": "DT_FLOAT"
          }
        }
      },
      {
        "name": "bert/encoder/layer_7/attention/self/query/kernel",
        "op": "Const",
        "attr": {
          "dtype": {
            "type": "DT_FLOAT"
          },
          "value": {
            "tensor": {
              "dtype": "DT_FLOAT",
              "tensorShape": {
                "dim": [
                  {
                    "size": "768"
                  },
                  {
                    "size": "768"
                  }
                ]
              }
            }
          }
        }
      },
      {
        "name": "bert/encoder/layer_7/attention/self/query/bias",
        "op": "Const",
        "attr": {
          "dtype": {
            "type": "DT_FLOAT"
          },
          "value": {
            "tensor": {
              "dtype": "DT_FLOAT",
              "tensorShape": {
                "dim": [
                  {
                    "size": "768"
                  }
                ]
              }
            }
          }
        }
      },
      {
        "name": "bert/encoder/layer_7/attention/self/Reshape/shape/2",
        "op": "Const",
        "attr": {
          "dtype": {
            "type": "DT_INT32"
          },
          "value": {
            "tensor": {
              "dtype": "DT_INT32",
              "tensorShape": {}
            }
          }
        }
      },
      {
        "name": "bert/encoder/layer_7/attention/self/Reshape/shape/3",
        "op": "Const",
        "attr": {
          "value": {
            "tensor": {
              "dtype": "DT_INT32",
              "tensorShape": {}
            }
          },
          "dtype": {
            "type": "DT_INT32"
          }
        }
      },
      {
        "name": "bert/encoder/layer_7/attention/self/transpose/perm",
        "op": "Const",
        "attr": {
          "dtype": {
            "type": "DT_INT32"
          },
          "value": {
            "tensor": {
              "dtype": "DT_INT32",
              "tensorShape": {
                "dim": [
                  {
                    "size": "4"
                  }
                ]
              }
            }
          }
        }
      },
      {
        "name": "bert/encoder/layer_7/attention/self/key/kernel",
        "op": "Const",
        "attr": {
          "value": {
            "tensor": {
              "dtype": "DT_FLOAT",
              "tensorShape": {
                "dim": [
                  {
                    "size": "768"
                  },
                  {
                    "size": "768"
                  }
                ]
              }
            }
          },
          "dtype": {
            "type": "DT_FLOAT"
          }
        }
      },
      {
        "name": "bert/encoder/layer_7/attention/self/key/bias",
        "op": "Const",
        "attr": {
          "dtype": {
            "type": "DT_FLOAT"
          },
          "value": {
            "tensor": {
              "dtype": "DT_FLOAT",
              "tensorShape": {
                "dim": [
                  {
                    "size": "768"
                  }
                ]
              }
            }
          }
        }
      },
      {
        "name": "bert/encoder/layer_7/attention/self/Reshape_1/shape/2",
        "op": "Const",
        "attr": {
          "value": {
            "tensor": {
              "dtype": "DT_INT32",
              "tensorShape": {}
            }
          },
          "dtype": {
            "type": "DT_INT32"
          }
        }
      },
      {
        "name": "bert/encoder/layer_7/attention/self/Reshape_1/shape/3",
        "op": "Const",
        "attr": {
          "dtype": {
            "type": "DT_INT32"
          },
          "value": {
            "tensor": {
              "dtype": "DT_INT32",
              "tensorShape": {}
            }
          }
        }
      },
      {
        "name": "bert/encoder/layer_7/attention/self/transpose_1/perm",
        "op": "Const",
        "attr": {
          "value": {
            "tensor": {
              "dtype": "DT_INT32",
              "tensorShape": {
                "dim": [
                  {
                    "size": "4"
                  }
                ]
              }
            }
          },
          "dtype": {
            "type": "DT_INT32"
          }
        }
      },
      {
        "name": "bert/encoder/layer_7/attention/self/Mul/y",
        "op": "Const",
        "attr": {
          "dtype": {
            "type": "DT_FLOAT"
          },
          "value": {
            "tensor": {
              "dtype": "DT_FLOAT",
              "tensorShape": {}
            }
          }
        }
      },
      {
        "name": "bert/encoder/layer_7/attention/self/sub/x",
        "op": "Const",
        "attr": {
          "value": {
            "tensor": {
              "dtype": "DT_FLOAT",
              "tensorShape": {}
            }
          },
          "dtype": {
            "type": "DT_FLOAT"
          }
        }
      },
      {
        "name": "bert/encoder/layer_7/attention/self/ExpandDims/dim",
        "op": "Const",
        "attr": {
          "value": {
            "tensor": {
              "dtype": "DT_INT32",
              "tensorShape": {
                "dim": [
                  {
                    "size": "1"
                  }
                ]
              }
            }
          },
          "dtype": {
            "type": "DT_INT32"
          }
        }
      },
      {
        "name": "bert/encoder/layer_7/attention/self/mul_1/y",
        "op": "Const",
        "attr": {
          "dtype": {
            "type": "DT_FLOAT"
          },
          "value": {
            "tensor": {
              "dtype": "DT_FLOAT",
              "tensorShape": {}
            }
          }
        }
      },
      {
        "name": "bert/encoder/layer_7/attention/self/dropout/rate",
        "op": "Const",
        "attr": {
          "dtype": {
            "type": "DT_FLOAT"
          },
          "value": {
            "tensor": {
              "dtype": "DT_FLOAT",
              "tensorShape": {}
            }
          }
        }
      },
      {
        "name": "bert/encoder/layer_7/attention/self/value/kernel",
        "op": "Const",
        "attr": {
          "dtype": {
            "type": "DT_FLOAT"
          },
          "value": {
            "tensor": {
              "dtype": "DT_FLOAT",
              "tensorShape": {
                "dim": [
                  {
                    "size": "768"
                  },
                  {
                    "size": "768"
                  }
                ]
              }
            }
          }
        }
      },
      {
        "name": "bert/encoder/layer_7/attention/self/value/bias",
        "op": "Const",
        "attr": {
          "dtype": {
            "type": "DT_FLOAT"
          },
          "value": {
            "tensor": {
              "dtype": "DT_FLOAT",
              "tensorShape": {
                "dim": [
                  {
                    "size": "768"
                  }
                ]
              }
            }
          }
        }
      },
      {
        "name": "bert/encoder/layer_7/attention/self/Reshape_2/shape/2",
        "op": "Const",
        "attr": {
          "value": {
            "tensor": {
              "dtype": "DT_INT32",
              "tensorShape": {}
            }
          },
          "dtype": {
            "type": "DT_INT32"
          }
        }
      },
      {
        "name": "bert/encoder/layer_7/attention/self/Reshape_2/shape/3",
        "op": "Const",
        "attr": {
          "value": {
            "tensor": {
              "dtype": "DT_INT32",
              "tensorShape": {}
            }
          },
          "dtype": {
            "type": "DT_INT32"
          }
        }
      },
      {
        "name": "bert/encoder/layer_7/attention/self/transpose_2/perm",
        "op": "Const",
        "attr": {
          "value": {
            "tensor": {
              "dtype": "DT_INT32",
              "tensorShape": {
                "dim": [
                  {
                    "size": "4"
                  }
                ]
              }
            }
          },
          "dtype": {
            "type": "DT_INT32"
          }
        }
      },
      {
        "name": "bert/encoder/layer_7/attention/self/transpose_3/perm",
        "op": "Const",
        "attr": {
          "value": {
            "tensor": {
              "dtype": "DT_INT32",
              "tensorShape": {
                "dim": [
                  {
                    "size": "4"
                  }
                ]
              }
            }
          },
          "dtype": {
            "type": "DT_INT32"
          }
        }
      },
      {
        "name": "bert/encoder/layer_7/attention/self/Reshape_3/shape/1",
        "op": "Const",
        "attr": {
          "dtype": {
            "type": "DT_INT32"
          },
          "value": {
            "tensor": {
              "dtype": "DT_INT32",
              "tensorShape": {}
            }
          }
        }
      },
      {
        "name": "bert/encoder/layer_7/attention/output/dense/kernel",
        "op": "Const",
        "attr": {
          "dtype": {
            "type": "DT_FLOAT"
          },
          "value": {
            "tensor": {
              "dtype": "DT_FLOAT",
              "tensorShape": {
                "dim": [
                  {
                    "size": "768"
                  },
                  {
                    "size": "768"
                  }
                ]
              }
            }
          }
        }
      },
      {
        "name": "bert/encoder/layer_7/attention/output/dense/bias",
        "op": "Const",
        "attr": {
          "value": {
            "tensor": {
              "dtype": "DT_FLOAT",
              "tensorShape": {
                "dim": [
                  {
                    "size": "768"
                  }
                ]
              }
            }
          },
          "dtype": {
            "type": "DT_FLOAT"
          }
        }
      },
      {
        "name": "bert/encoder/layer_7/attention/output/dropout/rate",
        "op": "Const",
        "attr": {
          "value": {
            "tensor": {
              "dtype": "DT_FLOAT",
              "tensorShape": {}
            }
          },
          "dtype": {
            "type": "DT_FLOAT"
          }
        }
      },
      {
        "name": "bert/encoder/layer_6/output/LayerNorm/beta",
        "op": "Const",
        "attr": {
          "dtype": {
            "type": "DT_FLOAT"
          },
          "value": {
            "tensor": {
              "dtype": "DT_FLOAT",
              "tensorShape": {
                "dim": [
                  {
                    "size": "768"
                  }
                ]
              }
            }
          }
        }
      },
      {
        "name": "bert/encoder/layer_6/output/dropout/truediv",
        "op": "Const",
        "attr": {
          "value": {
            "tensor": {
              "dtype": "DT_FLOAT",
              "tensorShape": {}
            }
          },
          "dtype": {
            "type": "DT_FLOAT"
          }
        }
      },
      {
        "name": "bert/encoder/layer_6/intermediate/dense/mul_2/x",
        "op": "Const",
        "attr": {
          "dtype": {
            "type": "DT_FLOAT"
          },
          "value": {
            "tensor": {
              "dtype": "DT_FLOAT",
              "tensorShape": {}
            }
          }
        }
      },
      {
        "name": "bert/encoder/layer_6/intermediate/dense/add_1/x",
        "op": "Const",
        "attr": {
          "dtype": {
            "type": "DT_FLOAT"
          },
          "value": {
            "tensor": {
              "dtype": "DT_FLOAT",
              "tensorShape": {}
            }
          }
        }
      },
      {
        "name": "bert/encoder/layer_6/intermediate/dense/mul_1/x",
        "op": "Const",
        "attr": {
          "value": {
            "tensor": {
              "dtype": "DT_FLOAT",
              "tensorShape": {}
            }
          },
          "dtype": {
            "type": "DT_FLOAT"
          }
        }
      },
      {
        "name": "bert/encoder/layer_6/intermediate/dense/mul/x",
        "op": "Const",
        "attr": {
          "dtype": {
            "type": "DT_FLOAT"
          },
          "value": {
            "tensor": {
              "dtype": "DT_FLOAT",
              "tensorShape": {}
            }
          }
        }
      },
      {
        "name": "bert/encoder/layer_6/intermediate/dense/kernel",
        "op": "Const",
        "attr": {
          "value": {
            "tensor": {
              "dtype": "DT_FLOAT",
              "tensorShape": {
                "dim": [
                  {
                    "size": "768"
                  },
                  {
                    "size": "3072"
                  }
                ]
              }
            }
          },
          "dtype": {
            "type": "DT_FLOAT"
          }
        }
      },
      {
        "name": "bert/encoder/layer_6/intermediate/dense/bias",
        "op": "Const",
        "attr": {
          "value": {
            "tensor": {
              "dtype": "DT_FLOAT",
              "tensorShape": {
                "dim": [
                  {
                    "size": "3072"
                  }
                ]
              }
            }
          },
          "dtype": {
            "type": "DT_FLOAT"
          }
        }
      },
      {
        "name": "bert/encoder/layer_6/intermediate/dense/Pow/y",
        "op": "Const",
        "attr": {
          "value": {
            "tensor": {
              "dtype": "DT_FLOAT",
              "tensorShape": {}
            }
          },
          "dtype": {
            "type": "DT_FLOAT"
          }
        }
      },
      {
        "name": "bert/encoder/layer_6/output/dense/kernel",
        "op": "Const",
        "attr": {
          "dtype": {
            "type": "DT_FLOAT"
          },
          "value": {
            "tensor": {
              "dtype": "DT_FLOAT",
              "tensorShape": {
                "dim": [
                  {
                    "size": "3072"
                  },
                  {
                    "size": "768"
                  }
                ]
              }
            }
          }
        }
      },
      {
        "name": "bert/encoder/layer_6/output/dense/bias",
        "op": "Const",
        "attr": {
          "dtype": {
            "type": "DT_FLOAT"
          },
          "value": {
            "tensor": {
              "dtype": "DT_FLOAT",
              "tensorShape": {
                "dim": [
                  {
                    "size": "768"
                  }
                ]
              }
            }
          }
        }
      },
      {
        "name": "bert/encoder/layer_6/output/dropout/rate",
        "op": "Const",
        "attr": {
          "dtype": {
            "type": "DT_FLOAT"
          },
          "value": {
            "tensor": {
              "dtype": "DT_FLOAT",
              "tensorShape": {}
            }
          }
        }
      },
      {
        "name": "bert/encoder/layer_6/attention/output/LayerNorm/beta",
        "op": "Const",
        "attr": {
          "value": {
            "tensor": {
              "dtype": "DT_FLOAT",
              "tensorShape": {
                "dim": [
                  {
                    "size": "768"
                  }
                ]
              }
            }
          },
          "dtype": {
            "type": "DT_FLOAT"
          }
        }
      },
      {
        "name": "bert/encoder/layer_6/attention/output/dropout/truediv",
        "op": "Const",
        "attr": {
          "value": {
            "tensor": {
              "dtype": "DT_FLOAT",
              "tensorShape": {}
            }
          },
          "dtype": {
            "type": "DT_FLOAT"
          }
        }
      },
      {
        "name": "bert/encoder/layer_6/attention/self/dropout/truediv",
        "op": "Const",
        "attr": {
          "value": {
            "tensor": {
              "dtype": "DT_FLOAT",
              "tensorShape": {}
            }
          },
          "dtype": {
            "type": "DT_FLOAT"
          }
        }
      },
      {
        "name": "bert/encoder/layer_6/attention/self/query/kernel",
        "op": "Const",
        "attr": {
          "dtype": {
            "type": "DT_FLOAT"
          },
          "value": {
            "tensor": {
              "dtype": "DT_FLOAT",
              "tensorShape": {
                "dim": [
                  {
                    "size": "768"
                  },
                  {
                    "size": "768"
                  }
                ]
              }
            }
          }
        }
      },
      {
        "name": "bert/encoder/layer_6/attention/self/query/bias",
        "op": "Const",
        "attr": {
          "dtype": {
            "type": "DT_FLOAT"
          },
          "value": {
            "tensor": {
              "dtype": "DT_FLOAT",
              "tensorShape": {
                "dim": [
                  {
                    "size": "768"
                  }
                ]
              }
            }
          }
        }
      },
      {
        "name": "bert/encoder/layer_6/attention/self/Reshape/shape/2",
        "op": "Const",
        "attr": {
          "value": {
            "tensor": {
              "dtype": "DT_INT32",
              "tensorShape": {}
            }
          },
          "dtype": {
            "type": "DT_INT32"
          }
        }
      },
      {
        "name": "bert/encoder/layer_6/attention/self/Reshape/shape/3",
        "op": "Const",
        "attr": {
          "dtype": {
            "type": "DT_INT32"
          },
          "value": {
            "tensor": {
              "dtype": "DT_INT32",
              "tensorShape": {}
            }
          }
        }
      },
      {
        "name": "bert/encoder/layer_6/attention/self/transpose/perm",
        "op": "Const",
        "attr": {
          "dtype": {
            "type": "DT_INT32"
          },
          "value": {
            "tensor": {
              "dtype": "DT_INT32",
              "tensorShape": {
                "dim": [
                  {
                    "size": "4"
                  }
                ]
              }
            }
          }
        }
      },
      {
        "name": "bert/encoder/layer_6/attention/self/key/kernel",
        "op": "Const",
        "attr": {
          "dtype": {
            "type": "DT_FLOAT"
          },
          "value": {
            "tensor": {
              "dtype": "DT_FLOAT",
              "tensorShape": {
                "dim": [
                  {
                    "size": "768"
                  },
                  {
                    "size": "768"
                  }
                ]
              }
            }
          }
        }
      },
      {
        "name": "bert/encoder/layer_6/attention/self/key/bias",
        "op": "Const",
        "attr": {
          "value": {
            "tensor": {
              "dtype": "DT_FLOAT",
              "tensorShape": {
                "dim": [
                  {
                    "size": "768"
                  }
                ]
              }
            }
          },
          "dtype": {
            "type": "DT_FLOAT"
          }
        }
      },
      {
        "name": "bert/encoder/layer_6/attention/self/Reshape_1/shape/2",
        "op": "Const",
        "attr": {
          "value": {
            "tensor": {
              "dtype": "DT_INT32",
              "tensorShape": {}
            }
          },
          "dtype": {
            "type": "DT_INT32"
          }
        }
      },
      {
        "name": "bert/encoder/layer_6/attention/self/Reshape_1/shape/3",
        "op": "Const",
        "attr": {
          "value": {
            "tensor": {
              "dtype": "DT_INT32",
              "tensorShape": {}
            }
          },
          "dtype": {
            "type": "DT_INT32"
          }
        }
      },
      {
        "name": "bert/encoder/layer_6/attention/self/transpose_1/perm",
        "op": "Const",
        "attr": {
          "value": {
            "tensor": {
              "dtype": "DT_INT32",
              "tensorShape": {
                "dim": [
                  {
                    "size": "4"
                  }
                ]
              }
            }
          },
          "dtype": {
            "type": "DT_INT32"
          }
        }
      },
      {
        "name": "bert/encoder/layer_6/attention/self/Mul/y",
        "op": "Const",
        "attr": {
          "value": {
            "tensor": {
              "dtype": "DT_FLOAT",
              "tensorShape": {}
            }
          },
          "dtype": {
            "type": "DT_FLOAT"
          }
        }
      },
      {
        "name": "bert/encoder/layer_6/attention/self/sub/x",
        "op": "Const",
        "attr": {
          "value": {
            "tensor": {
              "dtype": "DT_FLOAT",
              "tensorShape": {}
            }
          },
          "dtype": {
            "type": "DT_FLOAT"
          }
        }
      },
      {
        "name": "bert/encoder/layer_6/attention/self/ExpandDims/dim",
        "op": "Const",
        "attr": {
          "dtype": {
            "type": "DT_INT32"
          },
          "value": {
            "tensor": {
              "dtype": "DT_INT32",
              "tensorShape": {
                "dim": [
                  {
                    "size": "1"
                  }
                ]
              }
            }
          }
        }
      },
      {
        "name": "bert/encoder/layer_6/attention/self/mul_1/y",
        "op": "Const",
        "attr": {
          "dtype": {
            "type": "DT_FLOAT"
          },
          "value": {
            "tensor": {
              "dtype": "DT_FLOAT",
              "tensorShape": {}
            }
          }
        }
      },
      {
        "name": "bert/encoder/layer_6/attention/self/dropout/rate",
        "op": "Const",
        "attr": {
          "value": {
            "tensor": {
              "dtype": "DT_FLOAT",
              "tensorShape": {}
            }
          },
          "dtype": {
            "type": "DT_FLOAT"
          }
        }
      },
      {
        "name": "bert/encoder/layer_6/attention/self/value/kernel",
        "op": "Const",
        "attr": {
          "dtype": {
            "type": "DT_FLOAT"
          },
          "value": {
            "tensor": {
              "dtype": "DT_FLOAT",
              "tensorShape": {
                "dim": [
                  {
                    "size": "768"
                  },
                  {
                    "size": "768"
                  }
                ]
              }
            }
          }
        }
      },
      {
        "name": "bert/encoder/layer_6/attention/self/value/bias",
        "op": "Const",
        "attr": {
          "dtype": {
            "type": "DT_FLOAT"
          },
          "value": {
            "tensor": {
              "dtype": "DT_FLOAT",
              "tensorShape": {
                "dim": [
                  {
                    "size": "768"
                  }
                ]
              }
            }
          }
        }
      },
      {
        "name": "bert/encoder/layer_6/attention/self/Reshape_2/shape/2",
        "op": "Const",
        "attr": {
          "value": {
            "tensor": {
              "dtype": "DT_INT32",
              "tensorShape": {}
            }
          },
          "dtype": {
            "type": "DT_INT32"
          }
        }
      },
      {
        "name": "bert/encoder/layer_6/attention/self/Reshape_2/shape/3",
        "op": "Const",
        "attr": {
          "dtype": {
            "type": "DT_INT32"
          },
          "value": {
            "tensor": {
              "dtype": "DT_INT32",
              "tensorShape": {}
            }
          }
        }
      },
      {
        "name": "bert/encoder/layer_6/attention/self/transpose_2/perm",
        "op": "Const",
        "attr": {
          "dtype": {
            "type": "DT_INT32"
          },
          "value": {
            "tensor": {
              "dtype": "DT_INT32",
              "tensorShape": {
                "dim": [
                  {
                    "size": "4"
                  }
                ]
              }
            }
          }
        }
      },
      {
        "name": "bert/encoder/layer_6/attention/self/transpose_3/perm",
        "op": "Const",
        "attr": {
          "dtype": {
            "type": "DT_INT32"
          },
          "value": {
            "tensor": {
              "dtype": "DT_INT32",
              "tensorShape": {
                "dim": [
                  {
                    "size": "4"
                  }
                ]
              }
            }
          }
        }
      },
      {
        "name": "bert/encoder/layer_6/attention/self/Reshape_3/shape/1",
        "op": "Const",
        "attr": {
          "value": {
            "tensor": {
              "dtype": "DT_INT32",
              "tensorShape": {}
            }
          },
          "dtype": {
            "type": "DT_INT32"
          }
        }
      },
      {
        "name": "bert/encoder/layer_6/attention/output/dense/kernel",
        "op": "Const",
        "attr": {
          "value": {
            "tensor": {
              "dtype": "DT_FLOAT",
              "tensorShape": {
                "dim": [
                  {
                    "size": "768"
                  },
                  {
                    "size": "768"
                  }
                ]
              }
            }
          },
          "dtype": {
            "type": "DT_FLOAT"
          }
        }
      },
      {
        "name": "bert/encoder/layer_6/attention/output/dense/bias",
        "op": "Const",
        "attr": {
          "dtype": {
            "type": "DT_FLOAT"
          },
          "value": {
            "tensor": {
              "dtype": "DT_FLOAT",
              "tensorShape": {
                "dim": [
                  {
                    "size": "768"
                  }
                ]
              }
            }
          }
        }
      },
      {
        "name": "bert/encoder/layer_6/attention/output/dropout/rate",
        "op": "Const",
        "attr": {
          "value": {
            "tensor": {
              "dtype": "DT_FLOAT",
              "tensorShape": {}
            }
          },
          "dtype": {
            "type": "DT_FLOAT"
          }
        }
      },
      {
        "name": "bert/encoder/layer_5/output/LayerNorm/beta",
        "op": "Const",
        "attr": {
          "dtype": {
            "type": "DT_FLOAT"
          },
          "value": {
            "tensor": {
              "dtype": "DT_FLOAT",
              "tensorShape": {
                "dim": [
                  {
                    "size": "768"
                  }
                ]
              }
            }
          }
        }
      },
      {
        "name": "bert/encoder/layer_5/output/dropout/truediv",
        "op": "Const",
        "attr": {
          "value": {
            "tensor": {
              "dtype": "DT_FLOAT",
              "tensorShape": {}
            }
          },
          "dtype": {
            "type": "DT_FLOAT"
          }
        }
      },
      {
        "name": "bert/encoder/layer_5/intermediate/dense/mul_2/x",
        "op": "Const",
        "attr": {
          "dtype": {
            "type": "DT_FLOAT"
          },
          "value": {
            "tensor": {
              "dtype": "DT_FLOAT",
              "tensorShape": {}
            }
          }
        }
      },
      {
        "name": "bert/encoder/layer_5/intermediate/dense/add_1/x",
        "op": "Const",
        "attr": {
          "value": {
            "tensor": {
              "dtype": "DT_FLOAT",
              "tensorShape": {}
            }
          },
          "dtype": {
            "type": "DT_FLOAT"
          }
        }
      },
      {
        "name": "bert/encoder/layer_5/intermediate/dense/mul_1/x",
        "op": "Const",
        "attr": {
          "dtype": {
            "type": "DT_FLOAT"
          },
          "value": {
            "tensor": {
              "dtype": "DT_FLOAT",
              "tensorShape": {}
            }
          }
        }
      },
      {
        "name": "bert/encoder/layer_5/intermediate/dense/mul/x",
        "op": "Const",
        "attr": {
          "value": {
            "tensor": {
              "dtype": "DT_FLOAT",
              "tensorShape": {}
            }
          },
          "dtype": {
            "type": "DT_FLOAT"
          }
        }
      },
      {
        "name": "bert/encoder/layer_5/intermediate/dense/kernel",
        "op": "Const",
        "attr": {
          "dtype": {
            "type": "DT_FLOAT"
          },
          "value": {
            "tensor": {
              "dtype": "DT_FLOAT",
              "tensorShape": {
                "dim": [
                  {
                    "size": "768"
                  },
                  {
                    "size": "3072"
                  }
                ]
              }
            }
          }
        }
      },
      {
        "name": "bert/encoder/layer_5/intermediate/dense/bias",
        "op": "Const",
        "attr": {
          "value": {
            "tensor": {
              "dtype": "DT_FLOAT",
              "tensorShape": {
                "dim": [
                  {
                    "size": "3072"
                  }
                ]
              }
            }
          },
          "dtype": {
            "type": "DT_FLOAT"
          }
        }
      },
      {
        "name": "bert/encoder/layer_5/intermediate/dense/Pow/y",
        "op": "Const",
        "attr": {
          "value": {
            "tensor": {
              "dtype": "DT_FLOAT",
              "tensorShape": {}
            }
          },
          "dtype": {
            "type": "DT_FLOAT"
          }
        }
      },
      {
        "name": "bert/encoder/layer_5/output/dense/kernel",
        "op": "Const",
        "attr": {
          "value": {
            "tensor": {
              "dtype": "DT_FLOAT",
              "tensorShape": {
                "dim": [
                  {
                    "size": "3072"
                  },
                  {
                    "size": "768"
                  }
                ]
              }
            }
          },
          "dtype": {
            "type": "DT_FLOAT"
          }
        }
      },
      {
        "name": "bert/encoder/layer_5/output/dense/bias",
        "op": "Const",
        "attr": {
          "value": {
            "tensor": {
              "dtype": "DT_FLOAT",
              "tensorShape": {
                "dim": [
                  {
                    "size": "768"
                  }
                ]
              }
            }
          },
          "dtype": {
            "type": "DT_FLOAT"
          }
        }
      },
      {
        "name": "bert/encoder/layer_5/output/dropout/rate",
        "op": "Const",
        "attr": {
          "value": {
            "tensor": {
              "dtype": "DT_FLOAT",
              "tensorShape": {}
            }
          },
          "dtype": {
            "type": "DT_FLOAT"
          }
        }
      },
      {
        "name": "bert/encoder/layer_5/attention/output/LayerNorm/beta",
        "op": "Const",
        "attr": {
          "dtype": {
            "type": "DT_FLOAT"
          },
          "value": {
            "tensor": {
              "dtype": "DT_FLOAT",
              "tensorShape": {
                "dim": [
                  {
                    "size": "768"
                  }
                ]
              }
            }
          }
        }
      },
      {
        "name": "bert/encoder/layer_5/attention/output/dropout/truediv",
        "op": "Const",
        "attr": {
          "dtype": {
            "type": "DT_FLOAT"
          },
          "value": {
            "tensor": {
              "dtype": "DT_FLOAT",
              "tensorShape": {}
            }
          }
        }
      },
      {
        "name": "bert/encoder/layer_5/attention/self/dropout/truediv",
        "op": "Const",
        "attr": {
          "value": {
            "tensor": {
              "dtype": "DT_FLOAT",
              "tensorShape": {}
            }
          },
          "dtype": {
            "type": "DT_FLOAT"
          }
        }
      },
      {
        "name": "bert/encoder/layer_5/attention/self/query/kernel",
        "op": "Const",
        "attr": {
          "dtype": {
            "type": "DT_FLOAT"
          },
          "value": {
            "tensor": {
              "dtype": "DT_FLOAT",
              "tensorShape": {
                "dim": [
                  {
                    "size": "768"
                  },
                  {
                    "size": "768"
                  }
                ]
              }
            }
          }
        }
      },
      {
        "name": "bert/encoder/layer_5/attention/self/query/bias",
        "op": "Const",
        "attr": {
          "value": {
            "tensor": {
              "dtype": "DT_FLOAT",
              "tensorShape": {
                "dim": [
                  {
                    "size": "768"
                  }
                ]
              }
            }
          },
          "dtype": {
            "type": "DT_FLOAT"
          }
        }
      },
      {
        "name": "bert/encoder/layer_5/attention/self/Reshape/shape/2",
        "op": "Const",
        "attr": {
          "value": {
            "tensor": {
              "dtype": "DT_INT32",
              "tensorShape": {}
            }
          },
          "dtype": {
            "type": "DT_INT32"
          }
        }
      },
      {
        "name": "bert/encoder/layer_5/attention/self/Reshape/shape/3",
        "op": "Const",
        "attr": {
          "value": {
            "tensor": {
              "dtype": "DT_INT32",
              "tensorShape": {}
            }
          },
          "dtype": {
            "type": "DT_INT32"
          }
        }
      },
      {
        "name": "bert/encoder/layer_5/attention/self/transpose/perm",
        "op": "Const",
        "attr": {
          "value": {
            "tensor": {
              "dtype": "DT_INT32",
              "tensorShape": {
                "dim": [
                  {
                    "size": "4"
                  }
                ]
              }
            }
          },
          "dtype": {
            "type": "DT_INT32"
          }
        }
      },
      {
        "name": "bert/encoder/layer_5/attention/self/key/kernel",
        "op": "Const",
        "attr": {
          "dtype": {
            "type": "DT_FLOAT"
          },
          "value": {
            "tensor": {
              "dtype": "DT_FLOAT",
              "tensorShape": {
                "dim": [
                  {
                    "size": "768"
                  },
                  {
                    "size": "768"
                  }
                ]
              }
            }
          }
        }
      },
      {
        "name": "bert/encoder/layer_5/attention/self/key/bias",
        "op": "Const",
        "attr": {
          "dtype": {
            "type": "DT_FLOAT"
          },
          "value": {
            "tensor": {
              "dtype": "DT_FLOAT",
              "tensorShape": {
                "dim": [
                  {
                    "size": "768"
                  }
                ]
              }
            }
          }
        }
      },
      {
        "name": "bert/encoder/layer_5/attention/self/Reshape_1/shape/2",
        "op": "Const",
        "attr": {
          "dtype": {
            "type": "DT_INT32"
          },
          "value": {
            "tensor": {
              "dtype": "DT_INT32",
              "tensorShape": {}
            }
          }
        }
      },
      {
        "name": "bert/encoder/layer_5/attention/self/Reshape_1/shape/3",
        "op": "Const",
        "attr": {
          "dtype": {
            "type": "DT_INT32"
          },
          "value": {
            "tensor": {
              "dtype": "DT_INT32",
              "tensorShape": {}
            }
          }
        }
      },
      {
        "name": "bert/encoder/layer_5/attention/self/transpose_1/perm",
        "op": "Const",
        "attr": {
          "dtype": {
            "type": "DT_INT32"
          },
          "value": {
            "tensor": {
              "dtype": "DT_INT32",
              "tensorShape": {
                "dim": [
                  {
                    "size": "4"
                  }
                ]
              }
            }
          }
        }
      },
      {
        "name": "bert/encoder/layer_5/attention/self/Mul/y",
        "op": "Const",
        "attr": {
          "value": {
            "tensor": {
              "dtype": "DT_FLOAT",
              "tensorShape": {}
            }
          },
          "dtype": {
            "type": "DT_FLOAT"
          }
        }
      },
      {
        "name": "bert/encoder/layer_5/attention/self/sub/x",
        "op": "Const",
        "attr": {
          "dtype": {
            "type": "DT_FLOAT"
          },
          "value": {
            "tensor": {
              "dtype": "DT_FLOAT",
              "tensorShape": {}
            }
          }
        }
      },
      {
        "name": "bert/encoder/layer_5/attention/self/ExpandDims/dim",
        "op": "Const",
        "attr": {
          "value": {
            "tensor": {
              "dtype": "DT_INT32",
              "tensorShape": {
                "dim": [
                  {
                    "size": "1"
                  }
                ]
              }
            }
          },
          "dtype": {
            "type": "DT_INT32"
          }
        }
      },
      {
        "name": "bert/encoder/layer_5/attention/self/mul_1/y",
        "op": "Const",
        "attr": {
          "value": {
            "tensor": {
              "dtype": "DT_FLOAT",
              "tensorShape": {}
            }
          },
          "dtype": {
            "type": "DT_FLOAT"
          }
        }
      },
      {
        "name": "bert/encoder/layer_5/attention/self/dropout/rate",
        "op": "Const",
        "attr": {
          "dtype": {
            "type": "DT_FLOAT"
          },
          "value": {
            "tensor": {
              "dtype": "DT_FLOAT",
              "tensorShape": {}
            }
          }
        }
      },
      {
        "name": "bert/encoder/layer_5/attention/self/value/kernel",
        "op": "Const",
        "attr": {
          "dtype": {
            "type": "DT_FLOAT"
          },
          "value": {
            "tensor": {
              "dtype": "DT_FLOAT",
              "tensorShape": {
                "dim": [
                  {
                    "size": "768"
                  },
                  {
                    "size": "768"
                  }
                ]
              }
            }
          }
        }
      },
      {
        "name": "bert/encoder/layer_5/attention/self/value/bias",
        "op": "Const",
        "attr": {
          "value": {
            "tensor": {
              "dtype": "DT_FLOAT",
              "tensorShape": {
                "dim": [
                  {
                    "size": "768"
                  }
                ]
              }
            }
          },
          "dtype": {
            "type": "DT_FLOAT"
          }
        }
      },
      {
        "name": "bert/encoder/layer_5/attention/self/Reshape_2/shape/2",
        "op": "Const",
        "attr": {
          "dtype": {
            "type": "DT_INT32"
          },
          "value": {
            "tensor": {
              "dtype": "DT_INT32",
              "tensorShape": {}
            }
          }
        }
      },
      {
        "name": "bert/encoder/layer_5/attention/self/Reshape_2/shape/3",
        "op": "Const",
        "attr": {
          "value": {
            "tensor": {
              "dtype": "DT_INT32",
              "tensorShape": {}
            }
          },
          "dtype": {
            "type": "DT_INT32"
          }
        }
      },
      {
        "name": "bert/encoder/layer_5/attention/self/transpose_2/perm",
        "op": "Const",
        "attr": {
          "dtype": {
            "type": "DT_INT32"
          },
          "value": {
            "tensor": {
              "dtype": "DT_INT32",
              "tensorShape": {
                "dim": [
                  {
                    "size": "4"
                  }
                ]
              }
            }
          }
        }
      },
      {
        "name": "bert/encoder/layer_5/attention/self/transpose_3/perm",
        "op": "Const",
        "attr": {
          "dtype": {
            "type": "DT_INT32"
          },
          "value": {
            "tensor": {
              "dtype": "DT_INT32",
              "tensorShape": {
                "dim": [
                  {
                    "size": "4"
                  }
                ]
              }
            }
          }
        }
      },
      {
        "name": "bert/encoder/layer_5/attention/self/Reshape_3/shape/1",
        "op": "Const",
        "attr": {
          "dtype": {
            "type": "DT_INT32"
          },
          "value": {
            "tensor": {
              "dtype": "DT_INT32",
              "tensorShape": {}
            }
          }
        }
      },
      {
        "name": "bert/encoder/layer_5/attention/output/dense/kernel",
        "op": "Const",
        "attr": {
          "value": {
            "tensor": {
              "dtype": "DT_FLOAT",
              "tensorShape": {
                "dim": [
                  {
                    "size": "768"
                  },
                  {
                    "size": "768"
                  }
                ]
              }
            }
          },
          "dtype": {
            "type": "DT_FLOAT"
          }
        }
      },
      {
        "name": "bert/encoder/layer_5/attention/output/dense/bias",
        "op": "Const",
        "attr": {
          "value": {
            "tensor": {
              "dtype": "DT_FLOAT",
              "tensorShape": {
                "dim": [
                  {
                    "size": "768"
                  }
                ]
              }
            }
          },
          "dtype": {
            "type": "DT_FLOAT"
          }
        }
      },
      {
        "name": "bert/encoder/layer_5/attention/output/dropout/rate",
        "op": "Const",
        "attr": {
          "value": {
            "tensor": {
              "dtype": "DT_FLOAT",
              "tensorShape": {}
            }
          },
          "dtype": {
            "type": "DT_FLOAT"
          }
        }
      },
      {
        "name": "bert/encoder/layer_4/output/LayerNorm/beta",
        "op": "Const",
        "attr": {
          "dtype": {
            "type": "DT_FLOAT"
          },
          "value": {
            "tensor": {
              "dtype": "DT_FLOAT",
              "tensorShape": {
                "dim": [
                  {
                    "size": "768"
                  }
                ]
              }
            }
          }
        }
      },
      {
        "name": "bert/encoder/layer_4/output/dropout/truediv",
        "op": "Const",
        "attr": {
          "value": {
            "tensor": {
              "dtype": "DT_FLOAT",
              "tensorShape": {}
            }
          },
          "dtype": {
            "type": "DT_FLOAT"
          }
        }
      },
      {
        "name": "bert/encoder/layer_4/intermediate/dense/mul_2/x",
        "op": "Const",
        "attr": {
          "dtype": {
            "type": "DT_FLOAT"
          },
          "value": {
            "tensor": {
              "dtype": "DT_FLOAT",
              "tensorShape": {}
            }
          }
        }
      },
      {
        "name": "bert/encoder/layer_4/intermediate/dense/add_1/x",
        "op": "Const",
        "attr": {
          "dtype": {
            "type": "DT_FLOAT"
          },
          "value": {
            "tensor": {
              "dtype": "DT_FLOAT",
              "tensorShape": {}
            }
          }
        }
      },
      {
        "name": "bert/encoder/layer_4/intermediate/dense/mul_1/x",
        "op": "Const",
        "attr": {
          "value": {
            "tensor": {
              "dtype": "DT_FLOAT",
              "tensorShape": {}
            }
          },
          "dtype": {
            "type": "DT_FLOAT"
          }
        }
      },
      {
        "name": "bert/encoder/layer_4/intermediate/dense/mul/x",
        "op": "Const",
        "attr": {
          "dtype": {
            "type": "DT_FLOAT"
          },
          "value": {
            "tensor": {
              "dtype": "DT_FLOAT",
              "tensorShape": {}
            }
          }
        }
      },
      {
        "name": "bert/encoder/layer_4/intermediate/dense/kernel",
        "op": "Const",
        "attr": {
          "value": {
            "tensor": {
              "dtype": "DT_FLOAT",
              "tensorShape": {
                "dim": [
                  {
                    "size": "768"
                  },
                  {
                    "size": "3072"
                  }
                ]
              }
            }
          },
          "dtype": {
            "type": "DT_FLOAT"
          }
        }
      },
      {
        "name": "bert/encoder/layer_4/intermediate/dense/bias",
        "op": "Const",
        "attr": {
          "value": {
            "tensor": {
              "dtype": "DT_FLOAT",
              "tensorShape": {
                "dim": [
                  {
                    "size": "3072"
                  }
                ]
              }
            }
          },
          "dtype": {
            "type": "DT_FLOAT"
          }
        }
      },
      {
        "name": "bert/encoder/layer_4/intermediate/dense/Pow/y",
        "op": "Const",
        "attr": {
          "dtype": {
            "type": "DT_FLOAT"
          },
          "value": {
            "tensor": {
              "dtype": "DT_FLOAT",
              "tensorShape": {}
            }
          }
        }
      },
      {
        "name": "bert/encoder/layer_4/output/dense/kernel",
        "op": "Const",
        "attr": {
          "value": {
            "tensor": {
              "dtype": "DT_FLOAT",
              "tensorShape": {
                "dim": [
                  {
                    "size": "3072"
                  },
                  {
                    "size": "768"
                  }
                ]
              }
            }
          },
          "dtype": {
            "type": "DT_FLOAT"
          }
        }
      },
      {
        "name": "bert/encoder/layer_4/output/dense/bias",
        "op": "Const",
        "attr": {
          "dtype": {
            "type": "DT_FLOAT"
          },
          "value": {
            "tensor": {
              "dtype": "DT_FLOAT",
              "tensorShape": {
                "dim": [
                  {
                    "size": "768"
                  }
                ]
              }
            }
          }
        }
      },
      {
        "name": "bert/encoder/layer_4/output/dropout/rate",
        "op": "Const",
        "attr": {
          "value": {
            "tensor": {
              "dtype": "DT_FLOAT",
              "tensorShape": {}
            }
          },
          "dtype": {
            "type": "DT_FLOAT"
          }
        }
      },
      {
        "name": "bert/encoder/layer_4/attention/output/LayerNorm/beta",
        "op": "Const",
        "attr": {
          "value": {
            "tensor": {
              "dtype": "DT_FLOAT",
              "tensorShape": {
                "dim": [
                  {
                    "size": "768"
                  }
                ]
              }
            }
          },
          "dtype": {
            "type": "DT_FLOAT"
          }
        }
      },
      {
        "name": "bert/encoder/layer_4/attention/output/dropout/truediv",
        "op": "Const",
        "attr": {
          "dtype": {
            "type": "DT_FLOAT"
          },
          "value": {
            "tensor": {
              "dtype": "DT_FLOAT",
              "tensorShape": {}
            }
          }
        }
      },
      {
        "name": "bert/encoder/layer_4/attention/self/dropout/truediv",
        "op": "Const",
        "attr": {
          "value": {
            "tensor": {
              "dtype": "DT_FLOAT",
              "tensorShape": {}
            }
          },
          "dtype": {
            "type": "DT_FLOAT"
          }
        }
      },
      {
        "name": "bert/encoder/layer_4/attention/self/query/kernel",
        "op": "Const",
        "attr": {
          "dtype": {
            "type": "DT_FLOAT"
          },
          "value": {
            "tensor": {
              "dtype": "DT_FLOAT",
              "tensorShape": {
                "dim": [
                  {
                    "size": "768"
                  },
                  {
                    "size": "768"
                  }
                ]
              }
            }
          }
        }
      },
      {
        "name": "bert/encoder/layer_4/attention/self/query/bias",
        "op": "Const",
        "attr": {
          "dtype": {
            "type": "DT_FLOAT"
          },
          "value": {
            "tensor": {
              "dtype": "DT_FLOAT",
              "tensorShape": {
                "dim": [
                  {
                    "size": "768"
                  }
                ]
              }
            }
          }
        }
      },
      {
        "name": "bert/encoder/layer_4/attention/self/Reshape/shape/2",
        "op": "Const",
        "attr": {
          "dtype": {
            "type": "DT_INT32"
          },
          "value": {
            "tensor": {
              "dtype": "DT_INT32",
              "tensorShape": {}
            }
          }
        }
      },
      {
        "name": "bert/encoder/layer_4/attention/self/Reshape/shape/3",
        "op": "Const",
        "attr": {
          "value": {
            "tensor": {
              "dtype": "DT_INT32",
              "tensorShape": {}
            }
          },
          "dtype": {
            "type": "DT_INT32"
          }
        }
      },
      {
        "name": "bert/encoder/layer_4/attention/self/transpose/perm",
        "op": "Const",
        "attr": {
          "dtype": {
            "type": "DT_INT32"
          },
          "value": {
            "tensor": {
              "dtype": "DT_INT32",
              "tensorShape": {
                "dim": [
                  {
                    "size": "4"
                  }
                ]
              }
            }
          }
        }
      },
      {
        "name": "bert/encoder/layer_4/attention/self/key/kernel",
        "op": "Const",
        "attr": {
          "value": {
            "tensor": {
              "dtype": "DT_FLOAT",
              "tensorShape": {
                "dim": [
                  {
                    "size": "768"
                  },
                  {
                    "size": "768"
                  }
                ]
              }
            }
          },
          "dtype": {
            "type": "DT_FLOAT"
          }
        }
      },
      {
        "name": "bert/encoder/layer_4/attention/self/key/bias",
        "op": "Const",
        "attr": {
          "value": {
            "tensor": {
              "dtype": "DT_FLOAT",
              "tensorShape": {
                "dim": [
                  {
                    "size": "768"
                  }
                ]
              }
            }
          },
          "dtype": {
            "type": "DT_FLOAT"
          }
        }
      },
      {
        "name": "bert/encoder/layer_4/attention/self/Reshape_1/shape/2",
        "op": "Const",
        "attr": {
          "value": {
            "tensor": {
              "dtype": "DT_INT32",
              "tensorShape": {}
            }
          },
          "dtype": {
            "type": "DT_INT32"
          }
        }
      },
      {
        "name": "bert/encoder/layer_4/attention/self/Reshape_1/shape/3",
        "op": "Const",
        "attr": {
          "value": {
            "tensor": {
              "dtype": "DT_INT32",
              "tensorShape": {}
            }
          },
          "dtype": {
            "type": "DT_INT32"
          }
        }
      },
      {
        "name": "bert/encoder/layer_4/attention/self/transpose_1/perm",
        "op": "Const",
        "attr": {
          "dtype": {
            "type": "DT_INT32"
          },
          "value": {
            "tensor": {
              "dtype": "DT_INT32",
              "tensorShape": {
                "dim": [
                  {
                    "size": "4"
                  }
                ]
              }
            }
          }
        }
      },
      {
        "name": "bert/encoder/layer_4/attention/self/Mul/y",
        "op": "Const",
        "attr": {
          "value": {
            "tensor": {
              "dtype": "DT_FLOAT",
              "tensorShape": {}
            }
          },
          "dtype": {
            "type": "DT_FLOAT"
          }
        }
      },
      {
        "name": "bert/encoder/layer_4/attention/self/sub/x",
        "op": "Const",
        "attr": {
          "value": {
            "tensor": {
              "dtype": "DT_FLOAT",
              "tensorShape": {}
            }
          },
          "dtype": {
            "type": "DT_FLOAT"
          }
        }
      },
      {
        "name": "bert/encoder/layer_4/attention/self/ExpandDims/dim",
        "op": "Const",
        "attr": {
          "dtype": {
            "type": "DT_INT32"
          },
          "value": {
            "tensor": {
              "dtype": "DT_INT32",
              "tensorShape": {
                "dim": [
                  {
                    "size": "1"
                  }
                ]
              }
            }
          }
        }
      },
      {
        "name": "bert/encoder/layer_4/attention/self/mul_1/y",
        "op": "Const",
        "attr": {
          "value": {
            "tensor": {
              "dtype": "DT_FLOAT",
              "tensorShape": {}
            }
          },
          "dtype": {
            "type": "DT_FLOAT"
          }
        }
      },
      {
        "name": "bert/encoder/layer_4/attention/self/dropout/rate",
        "op": "Const",
        "attr": {
          "value": {
            "tensor": {
              "dtype": "DT_FLOAT",
              "tensorShape": {}
            }
          },
          "dtype": {
            "type": "DT_FLOAT"
          }
        }
      },
      {
        "name": "bert/encoder/layer_4/attention/self/value/kernel",
        "op": "Const",
        "attr": {
          "dtype": {
            "type": "DT_FLOAT"
          },
          "value": {
            "tensor": {
              "dtype": "DT_FLOAT",
              "tensorShape": {
                "dim": [
                  {
                    "size": "768"
                  },
                  {
                    "size": "768"
                  }
                ]
              }
            }
          }
        }
      },
      {
        "name": "bert/encoder/layer_4/attention/self/value/bias",
        "op": "Const",
        "attr": {
          "value": {
            "tensor": {
              "dtype": "DT_FLOAT",
              "tensorShape": {
                "dim": [
                  {
                    "size": "768"
                  }
                ]
              }
            }
          },
          "dtype": {
            "type": "DT_FLOAT"
          }
        }
      },
      {
        "name": "bert/encoder/layer_4/attention/self/Reshape_2/shape/2",
        "op": "Const",
        "attr": {
          "dtype": {
            "type": "DT_INT32"
          },
          "value": {
            "tensor": {
              "dtype": "DT_INT32",
              "tensorShape": {}
            }
          }
        }
      },
      {
        "name": "bert/encoder/layer_4/attention/self/Reshape_2/shape/3",
        "op": "Const",
        "attr": {
          "value": {
            "tensor": {
              "dtype": "DT_INT32",
              "tensorShape": {}
            }
          },
          "dtype": {
            "type": "DT_INT32"
          }
        }
      },
      {
        "name": "bert/encoder/layer_4/attention/self/transpose_2/perm",
        "op": "Const",
        "attr": {
          "value": {
            "tensor": {
              "dtype": "DT_INT32",
              "tensorShape": {
                "dim": [
                  {
                    "size": "4"
                  }
                ]
              }
            }
          },
          "dtype": {
            "type": "DT_INT32"
          }
        }
      },
      {
        "name": "bert/encoder/layer_4/attention/self/transpose_3/perm",
        "op": "Const",
        "attr": {
          "dtype": {
            "type": "DT_INT32"
          },
          "value": {
            "tensor": {
              "dtype": "DT_INT32",
              "tensorShape": {
                "dim": [
                  {
                    "size": "4"
                  }
                ]
              }
            }
          }
        }
      },
      {
        "name": "bert/encoder/layer_4/attention/self/Reshape_3/shape/1",
        "op": "Const",
        "attr": {
          "value": {
            "tensor": {
              "dtype": "DT_INT32",
              "tensorShape": {}
            }
          },
          "dtype": {
            "type": "DT_INT32"
          }
        }
      },
      {
        "name": "bert/encoder/layer_4/attention/output/dense/kernel",
        "op": "Const",
        "attr": {
          "dtype": {
            "type": "DT_FLOAT"
          },
          "value": {
            "tensor": {
              "dtype": "DT_FLOAT",
              "tensorShape": {
                "dim": [
                  {
                    "size": "768"
                  },
                  {
                    "size": "768"
                  }
                ]
              }
            }
          }
        }
      },
      {
        "name": "bert/encoder/layer_4/attention/output/dense/bias",
        "op": "Const",
        "attr": {
          "value": {
            "tensor": {
              "dtype": "DT_FLOAT",
              "tensorShape": {
                "dim": [
                  {
                    "size": "768"
                  }
                ]
              }
            }
          },
          "dtype": {
            "type": "DT_FLOAT"
          }
        }
      },
      {
        "name": "bert/encoder/layer_4/attention/output/dropout/rate",
        "op": "Const",
        "attr": {
          "dtype": {
            "type": "DT_FLOAT"
          },
          "value": {
            "tensor": {
              "dtype": "DT_FLOAT",
              "tensorShape": {}
            }
          }
        }
      },
      {
        "name": "bert/encoder/layer_3/output/LayerNorm/beta",
        "op": "Const",
        "attr": {
          "dtype": {
            "type": "DT_FLOAT"
          },
          "value": {
            "tensor": {
              "dtype": "DT_FLOAT",
              "tensorShape": {
                "dim": [
                  {
                    "size": "768"
                  }
                ]
              }
            }
          }
        }
      },
      {
        "name": "bert/encoder/layer_3/output/dropout/truediv",
        "op": "Const",
        "attr": {
          "value": {
            "tensor": {
              "dtype": "DT_FLOAT",
              "tensorShape": {}
            }
          },
          "dtype": {
            "type": "DT_FLOAT"
          }
        }
      },
      {
        "name": "bert/encoder/layer_3/intermediate/dense/mul_2/x",
        "op": "Const",
        "attr": {
          "value": {
            "tensor": {
              "dtype": "DT_FLOAT",
              "tensorShape": {}
            }
          },
          "dtype": {
            "type": "DT_FLOAT"
          }
        }
      },
      {
        "name": "bert/encoder/layer_3/intermediate/dense/add_1/x",
        "op": "Const",
        "attr": {
          "value": {
            "tensor": {
              "dtype": "DT_FLOAT",
              "tensorShape": {}
            }
          },
          "dtype": {
            "type": "DT_FLOAT"
          }
        }
      },
      {
        "name": "bert/encoder/layer_3/intermediate/dense/mul_1/x",
        "op": "Const",
        "attr": {
          "dtype": {
            "type": "DT_FLOAT"
          },
          "value": {
            "tensor": {
              "dtype": "DT_FLOAT",
              "tensorShape": {}
            }
          }
        }
      },
      {
        "name": "bert/encoder/layer_3/intermediate/dense/mul/x",
        "op": "Const",
        "attr": {
          "dtype": {
            "type": "DT_FLOAT"
          },
          "value": {
            "tensor": {
              "dtype": "DT_FLOAT",
              "tensorShape": {}
            }
          }
        }
      },
      {
        "name": "bert/encoder/layer_3/intermediate/dense/kernel",
        "op": "Const",
        "attr": {
          "value": {
            "tensor": {
              "dtype": "DT_FLOAT",
              "tensorShape": {
                "dim": [
                  {
                    "size": "768"
                  },
                  {
                    "size": "3072"
                  }
                ]
              }
            }
          },
          "dtype": {
            "type": "DT_FLOAT"
          }
        }
      },
      {
        "name": "bert/encoder/layer_3/intermediate/dense/bias",
        "op": "Const",
        "attr": {
          "dtype": {
            "type": "DT_FLOAT"
          },
          "value": {
            "tensor": {
              "dtype": "DT_FLOAT",
              "tensorShape": {
                "dim": [
                  {
                    "size": "3072"
                  }
                ]
              }
            }
          }
        }
      },
      {
        "name": "bert/encoder/layer_3/intermediate/dense/Pow/y",
        "op": "Const",
        "attr": {
          "value": {
            "tensor": {
              "dtype": "DT_FLOAT",
              "tensorShape": {}
            }
          },
          "dtype": {
            "type": "DT_FLOAT"
          }
        }
      },
      {
        "name": "bert/encoder/layer_3/output/dense/kernel",
        "op": "Const",
        "attr": {
          "dtype": {
            "type": "DT_FLOAT"
          },
          "value": {
            "tensor": {
              "dtype": "DT_FLOAT",
              "tensorShape": {
                "dim": [
                  {
                    "size": "3072"
                  },
                  {
                    "size": "768"
                  }
                ]
              }
            }
          }
        }
      },
      {
        "name": "bert/encoder/layer_3/output/dense/bias",
        "op": "Const",
        "attr": {
          "dtype": {
            "type": "DT_FLOAT"
          },
          "value": {
            "tensor": {
              "dtype": "DT_FLOAT",
              "tensorShape": {
                "dim": [
                  {
                    "size": "768"
                  }
                ]
              }
            }
          }
        }
      },
      {
        "name": "bert/encoder/layer_3/output/dropout/rate",
        "op": "Const",
        "attr": {
          "value": {
            "tensor": {
              "dtype": "DT_FLOAT",
              "tensorShape": {}
            }
          },
          "dtype": {
            "type": "DT_FLOAT"
          }
        }
      },
      {
        "name": "bert/encoder/layer_3/attention/output/LayerNorm/beta",
        "op": "Const",
        "attr": {
          "value": {
            "tensor": {
              "dtype": "DT_FLOAT",
              "tensorShape": {
                "dim": [
                  {
                    "size": "768"
                  }
                ]
              }
            }
          },
          "dtype": {
            "type": "DT_FLOAT"
          }
        }
      },
      {
        "name": "bert/encoder/layer_3/attention/output/dropout/truediv",
        "op": "Const",
        "attr": {
          "value": {
            "tensor": {
              "dtype": "DT_FLOAT",
              "tensorShape": {}
            }
          },
          "dtype": {
            "type": "DT_FLOAT"
          }
        }
      },
      {
        "name": "bert/encoder/layer_3/attention/self/dropout/truediv",
        "op": "Const",
        "attr": {
          "dtype": {
            "type": "DT_FLOAT"
          },
          "value": {
            "tensor": {
              "dtype": "DT_FLOAT",
              "tensorShape": {}
            }
          }
        }
      },
      {
        "name": "bert/encoder/layer_3/attention/self/query/kernel",
        "op": "Const",
        "attr": {
          "dtype": {
            "type": "DT_FLOAT"
          },
          "value": {
            "tensor": {
              "dtype": "DT_FLOAT",
              "tensorShape": {
                "dim": [
                  {
                    "size": "768"
                  },
                  {
                    "size": "768"
                  }
                ]
              }
            }
          }
        }
      },
      {
        "name": "bert/encoder/layer_3/attention/self/query/bias",
        "op": "Const",
        "attr": {
          "dtype": {
            "type": "DT_FLOAT"
          },
          "value": {
            "tensor": {
              "dtype": "DT_FLOAT",
              "tensorShape": {
                "dim": [
                  {
                    "size": "768"
                  }
                ]
              }
            }
          }
        }
      },
      {
        "name": "bert/encoder/layer_3/attention/self/Reshape/shape/2",
        "op": "Const",
        "attr": {
          "dtype": {
            "type": "DT_INT32"
          },
          "value": {
            "tensor": {
              "dtype": "DT_INT32",
              "tensorShape": {}
            }
          }
        }
      },
      {
        "name": "bert/encoder/layer_3/attention/self/Reshape/shape/3",
        "op": "Const",
        "attr": {
          "dtype": {
            "type": "DT_INT32"
          },
          "value": {
            "tensor": {
              "dtype": "DT_INT32",
              "tensorShape": {}
            }
          }
        }
      },
      {
        "name": "bert/encoder/layer_3/attention/self/transpose/perm",
        "op": "Const",
        "attr": {
          "value": {
            "tensor": {
              "dtype": "DT_INT32",
              "tensorShape": {
                "dim": [
                  {
                    "size": "4"
                  }
                ]
              }
            }
          },
          "dtype": {
            "type": "DT_INT32"
          }
        }
      },
      {
        "name": "bert/encoder/layer_3/attention/self/key/kernel",
        "op": "Const",
        "attr": {
          "dtype": {
            "type": "DT_FLOAT"
          },
          "value": {
            "tensor": {
              "dtype": "DT_FLOAT",
              "tensorShape": {
                "dim": [
                  {
                    "size": "768"
                  },
                  {
                    "size": "768"
                  }
                ]
              }
            }
          }
        }
      },
      {
        "name": "bert/encoder/layer_3/attention/self/key/bias",
        "op": "Const",
        "attr": {
          "dtype": {
            "type": "DT_FLOAT"
          },
          "value": {
            "tensor": {
              "dtype": "DT_FLOAT",
              "tensorShape": {
                "dim": [
                  {
                    "size": "768"
                  }
                ]
              }
            }
          }
        }
      },
      {
        "name": "bert/encoder/layer_3/attention/self/Reshape_1/shape/2",
        "op": "Const",
        "attr": {
          "dtype": {
            "type": "DT_INT32"
          },
          "value": {
            "tensor": {
…
          "dtype": "int32"
        },
        {
          "name": "bert/encoder/layer_3/attention/self/Reshape/shape/3",
          "shape": [],
          "dtype": "int32"
        },
        {
          "name": "bert/encoder/layer_3/attention/self/transpose/perm",
          "shape": [
            4
          ],
          "dtype": "int32"
        },
        {
          "name": "bert/encoder/layer_3/attention/self/key/kernel",
          "shape": [
            768,
            768
          ],
          "dtype": "float32"
        },
        {
          "name": "bert/encoder/layer_3/attention/self/key/bias",
          "shape": [
            768
          ],
          "dtype": "float32"
        },
        {
          "name": "bert/encoder/layer_3/attention/self/Reshape_1/shape/2",
          "shape": [],
          "dtype": "int32"
        },
        {
          "name": "bert/encoder/layer_3/attention/self/Reshape_1/shape/3",
          "shape": [],
          "dtype": "int32"
        },
        {
          "name": "bert/encoder/layer_3/attention/self/transpose_1/perm",
          "shape": [
            4
          ],
          "dtype": "int32"
        },
        {
          "name": "bert/encoder/layer_3/attention/self/Mul/y",
          "shape": [],
          "dtype": "float32"
        },
        {
          "name": "bert/encoder/layer_3/attention/self/sub/x",
          "shape": [],
          "dtype": "float32"
        },
        {
          "name": "bert/encoder/layer_3/attention/self/ExpandDims/dim",
          "shape": [
            1
          ],
          "dtype": "int32"
        },
        {
          "name": "bert/encoder/layer_3/attention/self/mul_1/y",
          "shape": [],
          "dtype": "float32"
        },
        {
          "name": "bert/encoder/layer_3/attention/self/dropout/rate",
          "shape": [],
          "dtype": "float32"
        },
        {
          "name": "bert/encoder/layer_3/attention/self/value/kernel",
          "shape": [
            768,
            768
          ],
          "dtype": "float32"
        },
        {
          "name": "bert/encoder/layer_3/attention/self/value/bias",
          "shape": [
            768
          ],
          "dtype": "float32"
        },
        {
          "name": "bert/encoder/layer_3/attention/self/Reshape_2/shape/2",
          "shape": [],
          "dtype": "int32"
        },
        {
          "name": "bert/encoder/layer_3/attention/self/Reshape_2/shape/3",
          "shape": [],
          "dtype": "int32"
        },
        {
          "name": "bert/encoder/layer_3/attention/self/transpose_2/perm",
          "shape": [
            4
          ],
          "dtype": "int32"
        },
        {
          "name": "bert/encoder/layer_3/attention/self/transpose_3/perm",
          "shape": [
            4
          ],
          "dtype": "int32"
        },
        {
          "name": "bert/encoder/layer_3/attention/self/Reshape_3/shape/1",
          "shape": [],
          "dtype": "int32"
        },
        {
          "name": "bert/encoder/layer_3/attention/output/dense/kernel",
          "shape": [
            768,
            768
          ],
          "dtype": "float32"
        },
        {
          "name": "bert/encoder/layer_3/attention/output/dense/bias",
          "shape": [
            768
          ],
          "dtype": "float32"
        },
        {
          "name": "bert/encoder/layer_3/attention/output/dropout/rate",
          "shape": [],
          "dtype": "float32"
        },
        {
          "name": "bert/encoder/layer_2/output/LayerNorm/beta",
          "shape": [
            768
          ],
          "dtype": "float32"
        },
        {
          "name": "bert/encoder/layer_2/output/dropout/truediv",
          "shape": [],
          "dtype": "float32"
        },
        {
          "name": "bert/encoder/layer_2/intermediate/dense/mul_2/x",
          "shape": [],
          "dtype": "float32"
        },
        {
          "name": "bert/encoder/layer_2/intermediate/dense/add_1/x",
          "shape": [],
          "dtype": "float32"
        },
        {
          "name": "bert/encoder/layer_2/intermediate/dense/mul_1/x",
          "shape": [],
          "dtype": "float32"
        },
        {
          "name": "bert/encoder/layer_2/intermediate/dense/mul/x",
          "shape": [],
          "dtype": "float32"
        },
        {
          "name": "bert/encoder/layer_2/intermediate/dense/kernel",
          "shape": [
            768,
            3072
          ],
          "dtype": "float32"
        },
        {
          "name": "bert/encoder/layer_2/intermediate/dense/bias",
          "shape": [
            3072
          ],
          "dtype": "float32"
        },
        {
          "name": "bert/encoder/layer_2/intermediate/dense/Pow/y",
          "shape": [],
          "dtype": "float32"
        },
        {
          "name": "bert/encoder/layer_2/output/dense/kernel",
          "shape": [
            3072,
            768
          ],
          "dtype": "float32"
        },
        {
          "name": "bert/encoder/layer_2/output/dense/bias",
          "shape": [
            768
          ],
          "dtype": "float32"
        },
        {
          "name": "bert/encoder/layer_2/output/dropout/rate",
          "shape": [],
          "dtype": "float32"
        },
        {
          "name": "bert/encoder/layer_2/attention/output/LayerNorm/beta",
          "shape": [
            768
          ],
          "dtype": "float32"
        },
        {
          "name": "bert/encoder/layer_2/attention/output/dropout/truediv",
          "shape": [],
          "dtype": "float32"
        },
        {
          "name": "bert/encoder/layer_2/attention/self/dropout/truediv",
          "shape": [],
          "dtype": "float32"
        },
        {
          "name": "bert/encoder/layer_2/attention/self/query/kernel",
          "shape": [
            768,
            768
          ],
          "dtype": "float32"
        },
        {
          "name": "bert/encoder/layer_2/attention/self/query/bias",
          "shape": [
            768
          ],
          "dtype": "float32"
        },
        {
          "name": "bert/encoder/layer_2/attention/self/Reshape/shape/2",
          "shape": [],
          "dtype": "int32"
        },
        {
          "name": "bert/encoder/layer_2/attention/self/Reshape/shape/3",
          "shape": [],
          "dtype": "int32"
        },
        {
          "name": "bert/encoder/layer_2/attention/self/transpose/perm",
          "shape": [
            4
          ],
          "dtype": "int32"
        },
        {
          "name": "bert/encoder/layer_2/attention/self/key/kernel",
          "shape": [
            768,
            768
          ],
          "dtype": "float32"
        },
        {
          "name": "bert/encoder/layer_2/attention/self/key/bias",
          "shape": [
            768
          ],
          "dtype": "float32"
        },
        {
          "name": "bert/encoder/layer_2/attention/self/Reshape_1/shape/2",
          "shape": [],
          "dtype": "int32"
        },
        {
          "name": "bert/encoder/layer_2/attention/self/Reshape_1/shape/3",
          "shape": [],
          "dtype": "int32"
        },
        {
          "name": "bert/encoder/layer_2/attention/self/transpose_1/perm",
          "shape": [
            4
          ],
          "dtype": "int32"
        },
        {
          "name": "bert/encoder/layer_2/attention/self/Mul/y",
          "shape": [],
          "dtype": "float32"
        },
        {
          "name": "bert/encoder/layer_2/attention/self/sub/x",
          "shape": [],
          "dtype": "float32"
        },
        {
          "name": "bert/encoder/layer_2/attention/self/ExpandDims/dim",
          "shape": [
            1
          ],
          "dtype": "int32"
        },
        {
          "name": "bert/encoder/layer_2/attention/self/mul_1/y",
          "shape": [],
          "dtype": "float32"
        },
        {
          "name": "bert/encoder/layer_2/attention/self/dropout/rate",
          "shape": [],
          "dtype": "float32"
        },
        {
          "name": "bert/encoder/layer_2/attention/self/value/kernel",
          "shape": [
            768,
            768
          ],
          "dtype": "float32"
        },
        {
          "name": "bert/encoder/layer_2/attention/self/value/bias",
          "shape": [
            768
          ],
          "dtype": "float32"
        },
        {
          "name": "bert/encoder/layer_2/attention/self/Reshape_2/shape/2",
          "shape": [],
          "dtype": "int32"
        },
        {
          "name": "bert/encoder/layer_2/attention/self/Reshape_2/shape/3",
          "shape": [],
          "dtype": "int32"
        },
        {
          "name": "bert/encoder/layer_2/attention/self/transpose_2/perm",
          "shape": [
            4
          ],
          "dtype": "int32"
        },
        {
          "name": "bert/encoder/layer_2/attention/self/transpose_3/perm",
          "shape": [
            4
          ],
          "dtype": "int32"
        },
        {
          "name": "bert/encoder/layer_2/attention/self/Reshape_3/shape/1",
          "shape": [],
          "dtype": "int32"
        },
        {
          "name": "bert/encoder/layer_2/attention/output/dense/kernel",
          "shape": [
            768,
            768
          ],
          "dtype": "float32"
        },
        {
          "name": "bert/encoder/layer_2/attention/output/dense/bias",
          "shape": [
            768
          ],
          "dtype": "float32"
        },
        {
          "name": "bert/encoder/layer_2/attention/output/dropout/rate",
          "shape": [],
          "dtype": "float32"
        },
        {
          "name": "bert/encoder/layer_1/output/LayerNorm/beta",
          "shape": [
            768
          ],
          "dtype": "float32"
        },
        {
          "name": "bert/encoder/layer_1/output/dropout/truediv",
          "shape": [],
          "dtype": "float32"
        },
        {
          "name": "bert/encoder/layer_1/intermediate/dense/mul_2/x",
          "shape": [],
          "dtype": "float32"
        },
        {
          "name": "bert/encoder/layer_1/intermediate/dense/add_1/x",
          "shape": [],
          "dtype": "float32"
        },
        {
          "name": "bert/encoder/layer_1/intermediate/dense/mul_1/x",
          "shape": [],
          "dtype": "float32"
        },
        {
          "name": "bert/encoder/layer_1/intermediate/dense/mul/x",
          "shape": [],
          "dtype": "float32"
        },
        {
          "name": "bert/encoder/layer_1/intermediate/dense/kernel",
          "shape": [
            768,
            3072
          ],
          "dtype": "float32"
        },
        {
          "name": "bert/encoder/layer_1/intermediate/dense/bias",
          "shape": [
            3072
          ],
          "dtype": "float32"
        },
        {
          "name": "bert/encoder/layer_1/intermediate/dense/Pow/y",
          "shape": [],
          "dtype": "float32"
        },
        {
          "name": "bert/encoder/layer_1/output/dense/kernel",
          "shape": [
            3072,
            768
          ],
          "dtype": "float32"
        },
        {
          "name": "bert/encoder/layer_1/output/dense/bias",
          "shape": [
            768
          ],
          "dtype": "float32"
        },
        {
          "name": "bert/encoder/layer_1/output/dropout/rate",
          "shape": [],
          "dtype": "float32"
        },
        {
          "name": "bert/encoder/layer_1/attention/output/LayerNorm/beta",
          "shape": [
            768
          ],
          "dtype": "float32"
        },
        {
          "name": "bert/encoder/layer_1/attention/output/dropout/truediv",
          "shape": [],
          "dtype": "float32"
        },
        {
          "name": "bert/encoder/layer_1/attention/self/dropout/truediv",
          "shape": [],
          "dtype": "float32"
        },
        {
          "name": "bert/encoder/layer_1/attention/self/query/kernel",
          "shape": [
            768,
            768
          ],
          "dtype": "float32"
        },
        {
          "name": "bert/encoder/layer_1/attention/self/query/bias",
          "shape": [
            768
          ],
          "dtype": "float32"
        },
        {
          "name": "bert/encoder/layer_1/attention/self/Reshape/shape/2",
          "shape": [],
          "dtype": "int32"
        },
        {
          "name": "bert/encoder/layer_1/attention/self/Reshape/shape/3",
          "shape": [],
          "dtype": "int32"
        },
        {
          "name": "bert/encoder/layer_1/attention/self/transpose/perm",
          "shape": [
            4
          ],
          "dtype": "int32"
        },
        {
          "name": "bert/encoder/layer_1/attention/self/key/kernel",
          "shape": [
            768,
            768
          ],
          "dtype": "float32"
        },
        {
          "name": "bert/encoder/layer_1/attention/self/key/bias",
          "shape": [
            768
          ],
          "dtype": "float32"
        },
        {
          "name": "bert/encoder/layer_1/attention/self/Reshape_1/shape/2",
          "shape": [],
          "dtype": "int32"
        },
        {
          "name": "bert/encoder/layer_1/attention/self/Reshape_1/shape/3",
          "shape": [],
          "dtype": "int32"
        },
        {
          "name": "bert/encoder/layer_1/attention/self/transpose_1/perm",
          "shape": [
            4
          ],
          "dtype": "int32"
        },
        {
          "name": "bert/encoder/layer_1/attention/self/Mul/y",
          "shape": [],
          "dtype": "float32"
        },
        {
          "name": "bert/encoder/layer_1/attention/self/sub/x",
          "shape": [],
          "dtype": "float32"
        },
        {
          "name": "bert/encoder/layer_1/attention/self/ExpandDims/dim",
          "shape": [
            1
          ],
          "dtype": "int32"
        },
        {
          "name": "bert/encoder/layer_1/attention/self/mul_1/y",
          "shape": [],
          "dtype": "float32"
        },
        {
          "name": "bert/encoder/layer_1/attention/self/dropout/rate",
          "shape": [],
          "dtype": "float32"
        },
        {
          "name": "bert/encoder/layer_1/attention/self/value/kernel",
          "shape": [
            768,
            768
          ],
          "dtype": "float32"
        },
        {
          "name": "bert/encoder/layer_1/attention/self/value/bias",
          "shape": [
            768
          ],
          "dtype": "float32"
        },
        {
          "name": "bert/encoder/layer_1/attention/self/Reshape_2/shape/2",
          "shape": [],
          "dtype": "int32"
        },
        {
          "name": "bert/encoder/layer_1/attention/self/Reshape_2/shape/3",
          "shape": [],
          "dtype": "int32"
        },
        {
          "name": "bert/encoder/layer_1/attention/self/transpose_2/perm",
          "shape": [
            4
          ],
          "dtype": "int32"
        },
        {
          "name": "bert/encoder/layer_1/attention/self/transpose_3/perm",
          "shape": [
            4
          ],
          "dtype": "int32"
        },
        {
          "name": "bert/encoder/layer_1/attention/self/Reshape_3/shape/1",
          "shape": [],
          "dtype": "int32"
        },
        {
          "name": "bert/encoder/layer_1/attention/output/dense/kernel",
          "shape": [
            768,
            768
          ],
          "dtype": "float32"
        },
        {
          "name": "bert/encoder/layer_1/attention/output/dense/bias",
          "shape": [
            768
          ],
          "dtype": "float32"
        },
        {
          "name": "bert/encoder/layer_1/attention/output/dropout/rate",
          "shape": [],
          "dtype": "float32"
        },
        {
          "name": "bert/encoder/layer_0/output/LayerNorm/beta",
          "shape": [
            768
          ],
          "dtype": "float32"
        },
        {
          "name": "bert/encoder/layer_0/output/dropout/truediv",
          "shape": [],
          "dtype": "float32"
        },
        {
          "name": "bert/encoder/layer_0/intermediate/dense/mul_2/x",
          "shape": [],
          "dtype": "float32"
        },
        {
          "name": "bert/encoder/layer_0/intermediate/dense/add_1/x",
          "shape": [],
          "dtype": "float32"
        },
        {
          "name": "bert/encoder/layer_0/intermediate/dense/mul_1/x",
          "shape": [],
          "dtype": "float32"
        },
        {
          "name": "bert/encoder/layer_0/intermediate/dense/mul/x",
          "shape": [],
          "dtype": "float32"
        },
        {
          "name": "bert/encoder/layer_0/intermediate/dense/kernel",
          "shape": [
            768,
            3072
          ],
          "dtype": "float32"
        },
        {
          "name": "bert/encoder/layer_0/intermediate/dense/bias",
          "shape": [
            3072
          ],
          "dtype": "float32"
        },
        {
          "name": "bert/encoder/layer_0/intermediate/dense/Pow/y",
          "shape": [],
          "dtype": "float32"
        },
        {
          "name": "bert/encoder/layer_0/output/dense/kernel",
          "shape": [
            3072,
            768
          ],
          "dtype": "float32"
        },
        {
          "name": "bert/encoder/layer_0/output/dense/bias",
          "shape": [
            768
          ],
          "dtype": "float32"
        },
        {
          "name": "bert/encoder/layer_0/output/dropout/rate",
          "shape": [],
          "dtype": "float32"
        },
        {
          "name": "bert/encoder/layer_0/attention/output/LayerNorm/beta",
          "shape": [
            768
          ],
          "dtype": "float32"
        },
        {
          "name": "bert/encoder/layer_0/attention/output/dropout/truediv",
          "shape": [],
          "dtype": "float32"
        },
        {
          "name": "bert/encoder/layer_0/attention/self/dropout/truediv",
          "shape": [],
          "dtype": "float32"
        },
        {
          "name": "bert/encoder/layer_0/attention/self/query/kernel",
          "shape": [
            768,
            768
          ],
          "dtype": "float32"
        },
        {
          "name": "bert/encoder/layer_0/attention/self/query/bias",
          "shape": [
            768
          ],
          "dtype": "float32"
        },
        {
          "name": "bert/encoder/layer_0/attention/self/Reshape/shape/2",
          "shape": [],
          "dtype": "int32"
        },
        {
          "name": "bert/encoder/layer_0/attention/self/Reshape/shape/3",
          "shape": [],
          "dtype": "int32"
        },
        {
          "name": "bert/encoder/layer_0/attention/self/transpose/perm",
          "shape": [
            4
          ],
          "dtype": "int32"
        },
        {
          "name": "bert/encoder/layer_0/attention/self/key/kernel",
          "shape": [
            768,
            768
          ],
          "dtype": "float32"
        },
        {
          "name": "bert/encoder/layer_0/attention/self/key/bias",
          "shape": [
            768
          ],
          "dtype": "float32"
        },
        {
          "name": "bert/encoder/layer_0/attention/self/Reshape_1/shape/2",
          "shape": [],
          "dtype": "int32"
        },
        {
          "name": "bert/encoder/layer_0/attention/self/Reshape_1/shape/3",
          "shape": [],
          "dtype": "int32"
        },
        {
          "name": "bert/encoder/layer_0/attention/self/transpose_1/perm",
          "shape": [
            4
          ],
          "dtype": "int32"
        },
        {
          "name": "bert/encoder/layer_0/attention/self/Mul/y",
          "shape": [],
          "dtype": "float32"
        },
        {
          "name": "bert/encoder/layer_0/attention/self/sub/x",
          "shape": [],
          "dtype": "float32"
        },
        {
          "name": "bert/encoder/strided_slice_1/stack",
          "shape": [
            1
          ],
          "dtype": "int32"
        },
        {
          "name": "bert/encoder/strided_slice_1/stack_1",
          "shape": [
            1
          ],
          "dtype": "int32"
        },
        {
          "name": "bert/encoder/strided_slice_1/stack_2",
          "shape": [
            1
          ],
          "dtype": "int32"
        },
        {
          "name": "bert/encoder/ones/packed/2",
          "shape": [],
          "dtype": "int32"
        },
        {
          "name": "bert/encoder/ones/Const",
          "shape": [],
          "dtype": "float32"
        },
        {
          "name": "bert/encoder/strided_slice/stack",
          "shape": [
            1
          ],
          "dtype": "int32"
        },
        {
          "name": "bert/encoder/strided_slice/stack_1",
          "shape": [
            1
          ],
          "dtype": "int32"
        },
        {
          "name": "bert/encoder/strided_slice/stack_2",
          "shape": [
            1
          ],
          "dtype": "int32"
        },
        {
          "name": "bert/encoder/Reshape/shape/1",
          "shape": [],
          "dtype": "int32"
        },
        {
          "name": "bert/encoder/strided_slice_3/stack",
          "shape": [
            1
          ],
          "dtype": "int32"
        },
        {
          "name": "bert/encoder/strided_slice_3/stack_1",
          "shape": [
            1
          ],
          "dtype": "int32"
        },
        {
          "name": "bert/encoder/strided_slice_3/stack_2",
          "shape": [
            1
          ],
          "dtype": "int32"
        },
        {
          "name": "bert/encoder/layer_0/attention/self/ExpandDims/dim",
          "shape": [
            1
          ],
          "dtype": "int32"
        },
        {
          "name": "bert/encoder/layer_0/attention/self/mul_1/y",
          "shape": [],
          "dtype": "float32"
        },
        {
          "name": "bert/encoder/layer_0/attention/self/dropout/rate",
          "shape": [],
          "dtype": "float32"
        },
        {
          "name": "bert/encoder/layer_0/attention/self/value/kernel",
          "shape": [
            768,
            768
          ],
          "dtype": "float32"
        },
        {
          "name": "bert/encoder/layer_0/attention/self/value/bias",
          "shape": [
            768
          ],
          "dtype": "float32"
        },
        {
          "name": "bert/encoder/layer_0/attention/self/Reshape_2/shape/2",
          "shape": [],
          "dtype": "int32"
        },
        {
          "name": "bert/encoder/layer_0/attention/self/Reshape_2/shape/3",
          "shape": [],
          "dtype": "int32"
        },
        {
          "name": "bert/encoder/layer_0/attention/self/transpose_2/perm",
          "shape": [
            4
          ],
          "dtype": "int32"
        },
        {
          "name": "bert/encoder/layer_0/attention/self/transpose_3/perm",
          "shape": [
            4
          ],
          "dtype": "int32"
        },
        {
          "name": "bert/encoder/layer_0/attention/self/Reshape_3/shape/1",
          "shape": [],
          "dtype": "int32"
        },
        {
          "name": "bert/encoder/layer_0/attention/output/dense/kernel",
          "shape": [
            768,
            768
          ],
          "dtype": "float32"
        },
        {
          "name": "bert/encoder/layer_0/attention/output/dense/bias",
          "shape": [
            768
          ],
          "dtype": "float32"
        },
        {
          "name": "bert/encoder/layer_0/attention/output/dropout/rate",
          "shape": [],
          "dtype": "float32"
        },
        {
          "name": "bert/encoder/Reshape_1/shape",
          "shape": [
            2
          ],
          "dtype": "int32"
        },
        {
          "name": "bert/encoder/layer_0/attention/output/LayerNorm/moments/mean/reduction_indices",
          "shape": [
            1
          ],
          "dtype": "int32"
        },
        {
          "name": "bert/encoder/layer_0/attention/output/LayerNorm/moments/variance/reduction_indices",
          "shape": [
            1
          ],
          "dtype": "int32"
        },
        {
          "name": "bert/encoder/layer_0/attention/output/LayerNorm/batchnorm/add/y",
          "shape": [],
          "dtype": "float32"
        },
        {
          "name": "bert/encoder/layer_0/attention/output/LayerNorm/gamma",
          "shape": [
            768
          ],
          "dtype": "float32"
        },
        {
          "name": "bert/encoder/layer_0/output/LayerNorm/moments/mean/reduction_indices",
          "shape": [
            1
          ],
          "dtype": "int32"
        },
        {
          "name": "bert/encoder/layer_0/output/LayerNorm/moments/variance/reduction_indices",
          "shape": [
            1
          ],
          "dtype": "int32"
        },
        {
          "name": "bert/encoder/layer_0/output/LayerNorm/batchnorm/add/y",
          "shape": [],
          "dtype": "float32"
        },
        {
          "name": "bert/encoder/layer_0/output/LayerNorm/gamma",
          "shape": [
            768
          ],
          "dtype": "float32"
        },
        {
          "name": "bert/encoder/layer_1/attention/output/LayerNorm/moments/mean/reduction_indices",
          "shape": [
            1
          ],
          "dtype": "int32"
        },
        {
          "name": "bert/encoder/layer_1/attention/output/LayerNorm/moments/variance/reduction_indices",
          "shape": [
            1
          ],
          "dtype": "int32"
        },
        {
          "name": "bert/encoder/layer_1/attention/output/LayerNorm/batchnorm/add/y",
          "shape": [],
          "dtype": "float32"
        },
        {
          "name": "bert/encoder/layer_1/attention/output/LayerNorm/gamma",
          "shape": [
            768
          ],
          "dtype": "float32"
        },
        {
          "name": "bert/encoder/layer_1/output/LayerNorm/moments/mean/reduction_indices",
          "shape": [
            1
          ],
          "dtype": "int32"
        },
        {
          "name": "bert/encoder/layer_1/output/LayerNorm/moments/variance/reduction_indices",
          "shape": [
            1
          ],
          "dtype": "int32"
        },
        {
          "name": "bert/encoder/layer_1/output/LayerNorm/batchnorm/add/y",
          "shape": [],
          "dtype": "float32"
        },
        {
          "name": "bert/encoder/layer_1/output/LayerNorm/gamma",
          "shape": [
            768
          ],
          "dtype": "float32"
        },
        {
          "name": "bert/encoder/layer_2/attention/output/LayerNorm/moments/mean/reduction_indices",
          "shape": [
            1
          ],
          "dtype": "int32"
        },
        {
          "name": "bert/encoder/layer_2/attention/output/LayerNorm/moments/variance/reduction_indices",
          "shape": [
            1
          ],
          "dtype": "int32"
        },
        {
          "name": "bert/encoder/layer_2/attention/output/LayerNorm/batchnorm/add/y",
          "shape": [],
          "dtype": "float32"
        },
        {
          "name": "bert/encoder/layer_2/attention/output/LayerNorm/gamma",
          "shape": [
            768
          ],
          "dtype": "float32"
        },
        {
          "name": "bert/encoder/layer_2/output/LayerNorm/moments/mean/reduction_indices",
          "shape": [
            1
          ],
          "dtype": "int32"
        },
        {
          "name": "bert/encoder/layer_2/output/LayerNorm/moments/variance/reduction_indices",
          "shape": [
            1
          ],
          "dtype": "int32"
        },
        {
          "name": "bert/encoder/layer_2/output/LayerNorm/batchnorm/add/y",
          "shape": [],
          "dtype": "float32"
        },
        {
          "name": "bert/encoder/layer_2/output/LayerNorm/gamma",
          "shape": [
            768
          ],
          "dtype": "float32"
        },
        {
          "name": "bert/encoder/layer_3/attention/output/LayerNorm/moments/mean/reduction_indices",
          "shape": [
            1
          ],
          "dtype": "int32"
        },
        {
          "name": "bert/encoder/layer_3/attention/output/LayerNorm/moments/variance/reduction_indices",
          "shape": [
            1
          ],
          "dtype": "int32"
        },
        {
          "name": "bert/encoder/layer_3/attention/output/LayerNorm/batchnorm/add/y",
          "shape": [],
          "dtype": "float32"
        },
        {
          "name": "bert/encoder/layer_3/attention/output/LayerNorm/gamma",
          "shape": [
            768
          ],
          "dtype": "float32"
        },
        {
          "name": "bert/encoder/layer_3/output/LayerNorm/moments/mean/reduction_indices",
          "shape": [
            1
          ],
          "dtype": "int32"
        },
        {
          "name": "bert/encoder/layer_3/output/LayerNorm/moments/variance/reduction_indices",
          "shape": [
            1
          ],
          "dtype": "int32"
        },
        {
          "name": "bert/encoder/layer_3/output/LayerNorm/batchnorm/add/y",
          "shape": [],
          "dtype": "float32"
        },
        {
          "name": "bert/encoder/layer_3/output/LayerNorm/gamma",
          "shape": [
            768
          ],
          "dtype": "float32"
        },
        {
          "name": "bert/encoder/layer_4/attention/output/LayerNorm/moments/mean/reduction_indices",
          "shape": [
            1
          ],
          "dtype": "int32"
        },
        {
          "name": "bert/encoder/layer_4/attention/output/LayerNorm/moments/variance/reduction_indices",
          "shape": [
            1
          ],
          "dtype": "int32"
        },
        {
          "name": "bert/encoder/layer_4/attention/output/LayerNorm/batchnorm/add/y",
          "shape": [],
          "dtype": "float32"
        },
        {
          "name": "bert/encoder/layer_4/attention/output/LayerNorm/gamma",
          "shape": [
            768
          ],
          "dtype": "float32"
        },
        {
          "name": "bert/encoder/layer_4/output/LayerNorm/moments/mean/reduction_indices",
          "shape": [
            1
          ],
          "dtype": "int32"
        },
        {
          "name": "bert/encoder/layer_4/output/LayerNorm/moments/variance/reduction_indices",
          "shape": [
            1
          ],
          "dtype": "int32"
        },
        {
          "name": "bert/encoder/layer_4/output/LayerNorm/batchnorm/add/y",
          "shape": [],
          "dtype": "float32"
        },
        {
          "name": "bert/encoder/layer_4/output/LayerNorm/gamma",
          "shape": [
            768
          ],
          "dtype": "float32"
        },
        {
          "name": "bert/encoder/layer_5/attention/output/LayerNorm/moments/mean/reduction_indices",
          "shape": [
            1
          ],
          "dtype": "int32"
        },
        {
          "name": "bert/encoder/layer_5/attention/output/LayerNorm/moments/variance/reduction_indices",
          "shape": [
            1
          ],
          "dtype": "int32"
        },
        {
          "name": "bert/encoder/layer_5/attention/output/LayerNorm/batchnorm/add/y",
          "shape": [],
          "dtype": "float32"
        },
        {
          "name": "bert/encoder/layer_5/attention/output/LayerNorm/gamma",
          "shape": [
            768
          ],
          "dtype": "float32"
        },
        {
          "name": "bert/encoder/layer_5/output/LayerNorm/moments/mean/reduction_indices",
          "shape": [
            1
          ],
          "dtype": "int32"
        },
        {
          "name": "bert/encoder/layer_5/output/LayerNorm/moments/variance/reduction_indices",
          "shape": [
            1
          ],
          "dtype": "int32"
        },
        {
          "name": "bert/encoder/layer_5/output/LayerNorm/batchnorm/add/y",
          "shape": [],
          "dtype": "float32"
        },
        {
          "name": "bert/encoder/layer_5/output/LayerNorm/gamma",
          "shape": [
            768
          ],
          "dtype": "float32"
        },
        {
          "name": "bert/encoder/layer_6/attention/output/LayerNorm/moments/mean/reduction_indices",
          "shape": [
            1
          ],
          "dtype": "int32"
        },
        {
          "name": "bert/encoder/layer_6/attention/output/LayerNorm/moments/variance/reduction_indices",
          "shape": [
            1
          ],
          "dtype": "int32"
        },
        {
          "name": "bert/encoder/layer_6/attention/output/LayerNorm/batchnorm/add/y",
          "shape": [],
          "dtype": "float32"
        },
        {
          "name": "bert/encoder/layer_6/attention/output/LayerNorm/gamma",
          "shape": [
            768
          ],
          "dtype": "float32"
        },
        {
          "name": "bert/encoder/layer_6/output/LayerNorm/moments/mean/reduction_indices",
          "shape": [
            1
          ],
          "dtype": "int32"
        },
        {
          "name": "bert/encoder/layer_6/output/LayerNorm/moments/variance/reduction_indices",
          "shape": [
            1
          ],
          "dtype": "int32"
        },
        {
          "name": "bert/encoder/layer_6/output/LayerNorm/batchnorm/add/y",
          "shape": [],
          "dtype": "float32"
        },
        {
          "name": "bert/encoder/layer_6/output/LayerNorm/gamma",
          "shape": [
            768
          ],
          "dtype": "float32"
        },
        {
          "name": "bert/encoder/layer_7/attention/output/LayerNorm/moments/mean/reduction_indices",
          "shape": [
            1
          ],
          "dtype": "int32"
        },
        {
          "name": "bert/encoder/layer_7/attention/output/LayerNorm/moments/variance/reduction_indices",
          "shape": [
            1
          ],
          "dtype": "int32"
        },
        {
          "name": "bert/encoder/layer_7/attention/output/LayerNorm/batchnorm/add/y",
          "shape": [],
          "dtype": "float32"
        },
        {
          "name": "bert/encoder/layer_7/attention/output/LayerNorm/gamma",
          "shape": [
            768
          ],
          "dtype": "float32"
        },
        {
          "name": "bert/encoder/layer_7/output/LayerNorm/moments/mean/reduction_indices",
          "shape": [
            1
          ],
          "dtype": "int32"
        },
        {
          "name": "bert/encoder/layer_7/output/LayerNorm/moments/variance/reduction_indices",
          "shape": [
            1
          ],
          "dtype": "int32"
        },
        {
          "name": "bert/encoder/layer_7/output/LayerNorm/batchnorm/add/y",
          "shape": [],
          "dtype": "float32"
        },
        {
          "name": "bert/encoder/layer_7/output/LayerNorm/gamma",
          "shape": [
            768
          ],
          "dtype": "float32"
        },
        {
          "name": "bert/encoder/layer_8/attention/output/LayerNorm/moments/mean/reduction_indices",
          "shape": [
            1
          ],
          "dtype": "int32"
        },
        {
          "name": "bert/encoder/layer_8/attention/output/LayerNorm/moments/variance/reduction_indices",
          "shape": [
            1
          ],
          "dtype": "int32"
        },
        {
          "name": "bert/encoder/layer_8/attention/output/LayerNorm/batchnorm/add/y",
          "shape": [],
          "dtype": "float32"
        },
        {
          "name": "bert/encoder/layer_8/attention/output/LayerNorm/gamma",
          "shape": [
            768
          ],
          "dtype": "float32"
        },
        {
          "name": "bert/encoder/layer_8/output/LayerNorm/moments/mean/reduction_indices",
          "shape": [
            1
          ],
          "dtype": "int32"
        },
        {
          "name": "bert/encoder/layer_8/output/LayerNorm/moments/variance/reduction_indices",
          "shape": [
            1
          ],
          "dtype": "int32"
        },
        {
          "name": "bert/encoder/layer_8/output/LayerNorm/batchnorm/add/y",
          "shape": [],
          "dtype": "float32"
        },
        {
          "name": "bert/encoder/layer_8/output/LayerNorm/gamma",
          "shape": [
            768
          ],
          "dtype": "float32"
        },
        {
          "name": "bert/encoder/layer_9/attention/output/LayerNorm/moments/mean/reduction_indices",
          "shape": [
            1
          ],
          "dtype": "int32"
        },
        {
          "name": "bert/encoder/layer_9/attention/output/LayerNorm/moments/variance/reduction_indices",
          "shape": [
            1
          ],
          "dtype": "int32"
        },
        {
          "name": "bert/encoder/layer_9/attention/output/LayerNorm/batchnorm/add/y",
          "shape": [],
          "dtype": "float32"
        },
        {
          "name": "bert/encoder/layer_9/attention/output/LayerNorm/gamma",
          "shape": [
            768
          ],
          "dtype": "float32"
        },
        {
          "name": "bert/encoder/layer_9/output/LayerNorm/moments/mean/reduction_indices",
          "shape": [
            1
          ],
          "dtype": "int32"
        },
        {
          "name": "bert/encoder/layer_9/output/LayerNorm/moments/variance/reduction_indices",
          "shape": [
            1
          ],
          "dtype": "int32"
        },
        {
          "name": "bert/encoder/layer_9/output/LayerNorm/batchnorm/add/y",
          "shape": [],
          "dtype": "float32"
        },
        {
          "name": "bert/encoder/layer_9/output/LayerNorm/gamma",
          "shape": [
            768
          ],
          "dtype": "float32"
        },
        {
          "name": "bert/encoder/layer_10/attention/output/LayerNorm/moments/mean/reduction_indices",
          "shape": [
            1
          ],
          "dtype": "int32"
        },
        {
          "name": "bert/encoder/layer_10/attention/output/LayerNorm/moments/variance/reduction_indices",
          "shape": [
            1
          ],
          "dtype": "int32"
        },
        {
          "name": "bert/encoder/layer_10/attention/output/LayerNorm/batchnorm/add/y",
          "shape": [],
          "dtype": "float32"
        },
        {
          "name": "bert/encoder/layer_10/attention/output/LayerNorm/gamma",
          "shape": [
            768
          ],
          "dtype": "float32"
        },
        {
          "name": "bert/encoder/layer_10/output/LayerNorm/moments/mean/reduction_indices",
          "shape": [
            1
          ],
          "dtype": "int32"
        },
        {
          "name": "bert/encoder/layer_10/output/LayerNorm/moments/variance/reduction_indices",
          "shape": [
            1
          ],
          "dtype": "int32"
        },
        {
          "name": "bert/encoder/layer_10/output/LayerNorm/batchnorm/add/y",
          "shape": [],
          "dtype": "float32"
        },
        {
          "name": "bert/encoder/layer_10/output/LayerNorm/gamma",
          "shape": [
            768
          ],
          "dtype": "float32"
        },
        {
          "name": "bert/encoder/layer_11/attention/output/LayerNorm/moments/mean/reduction_indices",
          "shape": [
            1
          ],
          "dtype": "int32"
        },
        {
          "name": "bert/encoder/layer_11/attention/output/LayerNorm/moments/variance/reduction_indices",
          "shape": [
            1
          ],
          "dtype": "int32"
        },
        {
          "name": "bert/encoder/layer_11/attention/output/LayerNorm/batchnorm/add/y",
          "shape": [],
          "dtype": "float32"
        },
        {
          "name": "bert/encoder/layer_11/attention/output/LayerNorm/gamma",
          "shape": [
            768
          ],
          "dtype": "float32"
        },
        {
          "name": "bert/encoder/layer_11/output/LayerNorm/moments/mean/reduction_indices",
          "shape": [
            1
          ],
          "dtype": "int32"
        },
        {
          "name": "bert/encoder/layer_11/output/LayerNorm/moments/variance/reduction_indices",
          "shape": [
            1
          ],
          "dtype": "int32"
        },
        {
          "name": "bert/encoder/layer_11/output/LayerNorm/batchnorm/add/y",
          "shape": [],
          "dtype": "float32"
        },
        {
          "name": "bert/encoder/layer_11/output/LayerNorm/gamma",
          "shape": [
            768
          ],
          "dtype": "float32"
        },
        {
          "name": "bert/encoder/strided_slice_4/stack",
          "shape": [
            1
          ],
          "dtype": "int32"
        },
        {
          "name": "bert/encoder/strided_slice_4/stack_1",
          "shape": [
            1
          ],
          "dtype": "int32"
        },
        {
          "name": "bert/encoder/strided_slice_4/stack_2",
          "shape": [
            1
          ],
          "dtype": "int32"
        },
        {
          "name": "bert/embeddings/dropout/truediv",
          "shape": [],
          "dtype": "float32"
        },
        {
          "name": "bert/embeddings/LayerNorm/beta",
          "shape": [
            768
          ],
          "dtype": "float32"
        },
        {
          "name": "bert/embeddings/Reshape_1/shape",
          "shape": [
            1
          ],
          "dtype": "int32"
        },
        {
          "name": "bert/embeddings/one_hot/depth",
          "shape": [],
          "dtype": "int32"
        },
        {
          "name": "bert/embeddings/one_hot/on_value",
          "shape": [],
          "dtype": "float32"
        },
        {
          "name": "bert/embeddings/one_hot/off_value",
          "shape": [],
          "dtype": "float32"
        },
        {
          "name": "bert/embeddings/token_type_embeddings",
          "shape": [
            2,
            768
          ],
          "dtype": "float32"
        },
        {
          "name": "bert/embeddings/strided_slice_2/stack",
          "shape": [
            1
          ],
          "dtype": "int32"
        },
        {
          "name": "bert/embeddings/strided_slice_2/stack_1",
          "shape": [
            1
          ],
          "dtype": "int32"
        },
        {
          "name": "bert/embeddings/strided_slice_2/stack_2",
          "shape": [
            1
          ],
          "dtype": "int32"
        },
        {
          "name": "bert/embeddings/Reshape_2/shape/2",
          "shape": [],
          "dtype": "int32"
        },
        {
          "name": "bert/embeddings/position_embeddings",
          "shape": [
            512,
            768
          ],
          "dtype": "float32"
        },
        {
          "name": "bert/embeddings/assert_less_equal/Assert/Assert/data_0",
          "shape": [],
          "dtype": "string"
        },
        {
          "name": "bert/embeddings/assert_less_equal/Assert/Assert/data_1",
          "shape": [],
          "dtype": "string"
        },
        {
          "name": "bert/embeddings/embedding_lookup/axis",
          "shape": [],
          "dtype": "int32"
        },
        {
          "name": "bert/embeddings/strided_slice/stack",
          "shape": [
            1
          ],
          "dtype": "int32"
        },
        {
          "name": "bert/embeddings/strided_slice/stack_1",
          "shape": [
            1
          ],
          "dtype": "int32"
        },
        {
          "name": "bert/embeddings/strided_slice/stack_2",
          "shape": [
            1
          ],
          "dtype": "int32"
        },
        {
          "name": "bert/embeddings/ExpandDims/dim",
          "shape": [
            1
          ],
          "dtype": "int32"
        },
        {
          "name": "bert/embeddings/strided_slice_1/stack",
          "shape": [
            1
          ],
          "dtype": "int32"
        },
        {
          "name": "bert/embeddings/strided_slice_1/stack_1",
          "shape": [
            1
          ],
          "dtype": "int32"
        },
        {
          "name": "bert/embeddings/strided_slice_1/stack_2",
          "shape": [
            1
          ],
          "dtype": "int32"
        },
        {
          "name": "bert/embeddings/Reshape/shape/2",
          "shape": [],
          "dtype": "int32"
        },
        {
          "name": "bert/embeddings/strided_slice_3/stack",
          "shape": [
            1
          ],
          "dtype": "int32"
        },
        {
          "name": "bert/embeddings/strided_slice_3/stack_1",
          "shape": [
            1
          ],
          "dtype": "int32"
        },
        {
          "name": "bert/embeddings/strided_slice_3/stack_2",
          "shape": [
            1
          ],
          "dtype": "int32"
        },
        {
          "name": "bert/embeddings/assert_less_equal/Assert/Assert/data_3",
          "shape": [],
          "dtype": "string"
        },
        {
          "name": "bert/embeddings/assert_less_equal/y",
          "shape": [],
          "dtype": "int32"
        },
        {
          "name": "bert/embeddings/LayerNorm/moments/mean/reduction_indices",
          "shape": [
            1
          ],
          "dtype": "int32"
        },
        {
          "name": "bert/embeddings/LayerNorm/moments/variance/reduction_indices",
          "shape": [
            1
          ],
          "dtype": "int32"
        },
        {
          "name": "bert/embeddings/LayerNorm/batchnorm/add/y",
          "shape": [],
          "dtype": "float32"
        },
        {
          "name": "bert/embeddings/LayerNorm/gamma",
          "shape": [
            768
          ],
          "dtype": "float32"
        },
        {
          "name": "bert/embeddings/dropout/rate",
          "shape": [],
          "dtype": "float32"
        },
        {
          "name": "bert/encoder/strided_slice_5/stack",
          "shape": [
            1
          ],
          "dtype": "int32"
        },
        {
          "name": "bert/encoder/strided_slice_5/stack_1",
          "shape": [
            1
          ],
          "dtype": "int32"
        },
        {
          "name": "bert/encoder/strided_slice_5/stack_2",
          "shape": [
            1
          ],
          "dtype": "int32"
        },
        {
          "name": "bert/encoder/Reshape_13/shape/2",
          "shape": [],
          "dtype": "int32"
        },
        {
          "name": "strided_slice_3/stack",
          "shape": [
            1
          ],
          "dtype": "int32"
        },
        {
          "name": "strided_slice_3/stack_1",
          "shape": [
            1
          ],
          "dtype": "int32"
        },
        {
          "name": "strided_slice_3/stack_2",
          "shape": [
            1
          ],
          "dtype": "int32"
        },
        {
          "name": "Reshape/shape",
          "shape": [
            2
          ],
          "dtype": "int32"
        },
        {
          "name": "Reshape_1/shape",
          "shape": [
            1
          ],
          "dtype": "int32"
        },
        {
          "name": "GatherV2/axis",
          "shape": [],
          "dtype": "int32"
        },
        {
          "name": "cls/predictions/transform/dense/kernel",
          "shape": [
            768,
            768
          ],
          "dtype": "float32"
        },
        {
          "name": "cls/predictions/transform/dense/bias",
          "shape": [
            768
          ],
          "dtype": "float32"
        },
        {
          "name": "cls/predictions/transform/dense/Pow/y",
          "shape": [],
          "dtype": "float32"
        },
        {
          "name": "cls/predictions/transform/LayerNorm/moments/mean/reduction_indices",
          "shape": [
            1
          ],
          "dtype": "int32"
        },
        {
          "name": "cls/predictions/transform/LayerNorm/moments/variance/reduction_indices",
          "shape": [
            1
          ],
          "dtype": "int32"
        },
        {
          "name": "cls/predictions/transform/LayerNorm/batchnorm/add/y",
          "shape": [],
          "dtype": "float32"
        },
        {
          "name": "cls/predictions/transform/LayerNorm/gamma",
          "shape": [
            768
          ],
          "dtype": "float32"
        },
        {
          "name": "bert/embeddings/word_embeddings",
          "shape": [
            28996,
            768
          ],
          "dtype": "float32"
        },
        {
          "name": "cls/predictions/output_bias",
          "shape": [
            28996
          ],
          "dtype": "float32"
        },
        {
          "name": "bert/embeddings/Slice/begin",
          "shape": [
            2
          ],
          "dtype": "int32"
        },
        {
          "name": "bert/embeddings/Slice/size/1",
          "shape": [],
          "dtype": "int32"
        },
        {
          "name": "bert/embeddings/Reshape_3/shape/0",
          "shape": [],
          "dtype": "int32"
        },
        {
          "name": "bert/embeddings/Reshape_3/shape/2",
          "shape": [],
          "dtype": "int32"
        }
      ]
    }
  ]
}